models/cnn-lstm_audio_classifier.pth (torch, 197251 bytes, 12 tensors)

conv1.weight f4 [64, 1, 3]
00000000: 8443 34be 013b 373e e832 bebe 9406 20be
00000010: 4547 b5be 01cf 02be e377 6c3e 0f2e 01bf
00000020: 87e5 1c3d 073d 80bc 8233 8ebc b706 f33e
00000030: 3d6e 0dbf fa8a fcbe cd00 a4be b31f d83e
00000040: dc39 d63e d2d7 f93e 3697 063f f0e5 f7bc
00000050: 5a9d 5dbe f3b9 eb3e 492b 183f 9630 c73e
00000060: 312c d9be 4e42 a1bd c2fa 8b3d afbe 553d
00000070: f444 e73d f42e 693e 47f9 9cbe 95bb 8d3d
00000080: 02dc 97be c41c dfbe 3b76 49be ce89 283d
00000090: a409 a4bd e3b1 ff3e 1465 ec3d 8618 563e
000000a0: 58bc dc3e d713 d23e 1cdd 1f3e 7a42 563e
000000b0: fc95 913e fd09 fabe 9b8d 0fbf 7247 0c3f
000000c0: 16a7 f03a 5c4d 0cbf 327a 23bd 4db3 cdbe
000000d0: 919f fcbd cff6 dfbe 7ad5 a13e 6390 193f
000000e0: d2a8 0abf f863 c3bd 7815 833e 7f22 9fbe
000000f0: e807 9ebe 80b3 1b3e c466 05bf 1bbb 4c3e
00000100: c5f4 de3e 4307 1e3d 3728 a0be f6ba e33e
00000110: 64a6 d43d 843f 00bf e327 08bf 5d4c eb3d
00000120: a68b cf3c 8d4a a7be f30f 5c3d 10a9 d7be
00000130: 8bd1 e7bc d706 80bd 61b2 f3be f120 f9be
00000140: be28 0cbf dece b0be 5598 2d3e 218c ce3e
00000150: 8532 663e ca9e ddbe 6052 bc3d c38f e8be
00000160: 13e3 963e 4892 2ebe ba24 c9bd 95a8 643e
00000170: 935c a63c f18c adbd cc5d 103f 0f8e 263e
00000180: 340d 1c3e 40a4 a5be 651a 12bf cb9a 993e
00000190: 3a16 493e d450 7abd d60c 09be a74e 943e
000001a0: 9f0b f63d 49c5 dcbb 0342 613e bddd e9be
000001b0: 394f 0ebf b678 bebe 076a f5be d046 0d3f
000001c0: 05f8 eb3e df63 c83d 5bc6 8bbe 4a5e 513e
000001d0: 57af 723e 62b9 323e 9695 92be 7a02 ea3e
000001e0: 6289 413d c28d 0ebf 6a2c e73e d414 8a3d
000001f0: 33cb 643e 9773 b43e b1f5 3b3e 1ad4 bc3e
00000200: d668 21be 9b03 a53e 8011 de3e 670d 863e
00000210: a34c 37be 3de5 753d 41e1 d8be 98d5 45be
00000220: 6da3 063f 4947 4dbd eb60 69be ac22 b2be
00000230: 3bb4 bebe eac1 f3be 148a e63e 5d2a 07bf
00000240: 939c ff3e 58af d73e 31d6 5fbe cbaf 383e
00000250: 2b2d 643e 163a debe 7e99 5b3e a714 fabe
00000260: a03e 863e 61e7 e6be 06cd 313d d25f 013f
00000270: b168 6a3e 178d 8bbe 766e b5be 29ce ce3e
00000280: 75c8 953e 622e e03e c8dc 9bbe 199e e73d
00000290: f485 6ebe 02b5 36be 4c0e 90be 3420 783e
000002a0: f679 e53e 84d7 063e 8d11 fcbc 1046 eb3e
000002b0: 1bfc 9d3c d39d 26be cb07 c33e 29b5 383e
000002c0: b494 94be c571 d33d ba3d ba3c 82c7 703e
000002d0: 8a54 75be 4ec7 8cbe 3376 6a3d dee9 243e
000002e0: e101 b53e c7cf 8a3e 0797 d4bd cef9 f0be
000002f0: 8caa 92be 7b3e 023f ca99 45be 3457 97be
-0.1760388 0.17893602 -0.37148213 -0.1562751 -0.35405937 -0.12774278 0.23092608 -0.50460905
0.03830483 -0.0156541 -0.017358545 0.4746606 -0.55246335 -0.4932478 -0.3203186 0.42211685
0.41841018 0.4879747 0.5257448 -0.03026101 -0.21642056 0.46040305 0.5944105 0.38904256
-0.42416528 -0.07873975 0.06834938 0.052183803 0.11292449 0.22771817 -0.30658934 0.06920544
-0.2966004 -0.43576634 -0.19674008 0.041147046 -0.08009651 0.49940404 0.115427166 0.20907792
0.43112445 0.41030762 0.1561169 0.20923796 0.28434741 -0.48835745 -0.5607545 0.54796517
0.0018360342 -0.5480554 -0.039911456 -0.40175858 -0.123351224 -0.43742988 0.31608182 0.5998594
-0.5416385 -0.09540552 0.25602317 -0.31081006 -0.30865407 0.15205193 -0.5210993 0.1999325
0.4354612 0.038581144 -0.31280681 0.44478577 0.10383299 -0.5009692 -0.5318586 0.114891745
0.025335144 -0.32674065 0.053726148 -0.42121172 -0.02829816 -0.062513046 -0.4759703 -0.48657945
-0.5474967 -0.34532827 0.16952641 0.40341285 0.22480209 -0.4328521 0.09195399 -0.4542218
0.2947012 -0.1704799 -0.09821458 0.22329934 0.020307815 -0.08474148 0.5639312 0.16265129
0.15239412 -0.32351875 -0.57071525 0.3000091 0.19637385 -0.06111224 -0.13383803 0.28966257
0.12013935 -0.0067373854 0.21997838 -0.45676985 -0.55589634 -0.3720147 -0.47932455 0.55186176
0.4608766 0.09784674 -0.2729977 0.20446125 0.236997 0.1745353 -0.2862975 0.45705014
0.04725016 -0.55685055 0.45151073 0.06742254 0.2234314 0.35244438 0.18355443 0.3688057
-0.15762648 0.32229313 0.43372726 0.261821 -0.17900328 0.06003307 -0.42359355 -0.19319761
0.5259312 -0.05011681 -0.22790878 -0.34792078 -0.3724688 -0.47608882 0.4502722 -0.52799016
0.49924144 0.42125964 -0.21859051 0.1803581 0.22282855 -0.4340369 0.21445271 -0.4884388
0.26219654 -0.45098403 0.043408416 0.50536835 0.22891499 -0.2725608 -0.35435838 0.40391663
0.292545 0.43785387 -0.3044188 0.113094516 -0.23293287 -0.17842487 -0.28135908 0.24231035
0.4481961 0.1316815 -0.030770088 0.4595189 0.019285252 -0.16271143 0.38091883 0.18037857
-0.290197 0.10324434 0.022734512 0.23513606 -0.2395803 -0.27495807 0.05724163 0.16104838
0.35352996 0.27111647 -0.10380369 -0.47065586 -0.28645742 0.5087659 -0.19296947 -0.29558718

conv1.bias f4 [64]
00000000: de74 edbe b446 c63e 4b82 e4ba a7ff 063f
00000010: 2e60 30be dabc bebe c0df e43e 2b1f 04bf
00000020: 0419 a1be bad0 82be 5848 48be 512c cabe
00000030: 9792 d3be 1e23 b93c de68 8abe cb18 033f
00000040: ec68 ef3e 3973 0fbf 6e45 6a3c b5f1 fe3d
00000050: cf44 3b3e 47d2 0cbf 901b 12bf e9cb a9bd
00000060: b37c 4dbc 7653 01bf 10c2 123f c318 e5bd
00000070: 8688 c13e d771 ee3d ebd1 bf3e e75b 393e
00000080: 496f db3d 14f8 0fbf 5b7d 183f 3d40 083f
00000090: 6f38 93be 8ee1 8ebb 7a9e bb3e 46b0 e33e
000000a0: 1ee1 dbbe 644a dc3e 44d2 af3e 493f c83c
000000b0: 8637 f83e b1bc 7ebe 786b 26be ecc4 9dbd
000000c0: edb7 fc3e 2750 ee3e 7127 273e c31f 033f
000000d0: 19eb 263a aaf4 05bf 3dec 30be c9fa dc3e
000000e0: 4190 3dbd 5d27 02bf d1bf b03e d722 cdbd
000000f0: 84e0 bebe 8837 0cbd 40bb 90be 9b6e 6ebe
-0.46378225 0.38725817 -0.001743385 0.52733845 -0.1722419 -0.37253457 0.44701958 -0.5161006
-0.31464398 -0.2554987 -0.19558847 -0.39486936 -0.41322777 0.022599753 -0.27033132 0.51209706
0.46759737 -0.5603519 0.01429878 0.12448446 0.18287967 -0.5500836 -0.5707331 -0.08290846
-0.012541938 -0.50517976 0.57327366 -0.111863635 0.37799472 0.11642807 0.37464842 0.18101464
0.10714585 -0.5623791 0.5956628 0.5322302 -0.28753993 -0.0043603843 0.36644346 0.44470423
-0.42945188 0.43025506 0.34340107 0.02444424 0.4847986 -0.24876668 -0.16251934 -0.077035755
0.49359074 0.46545526 0.1632364 0.5122034 0.000636743 -0.5232645 -0.17277618 0.43160084
-0.04628015 -0.50841314 0.34521344 -0.10016411 -0.37280667 -0.034232646 -0.2826786 -0.2328438

conv2.weight f4 [64, 64, 3]
00000000: 7956 c63c 6c60 cfbc fba1 8abd 28e5 00bb
00000010: b615 7a3d 8304 e73b 3790 813c a188 1cbd
00000020: 701d 34bd 3b3c 223c 91fa 613c 2cd8 703d
00000030: 03f7 753d ed56 173d a882 74bc 851f 40bd
00000040: 6668 23bd 2832 7a3c 0eea 37bd 18f1 523d
00000050: 1acd b0bc c93e fc3c 7e7e c9bc 5a03 2b3c
00000060: fad1 4fbd 14b9 84bd 22bf 26bd e2e2 ff3b
00000070: 5d79 f23c a056 35bd c59a 893d 61c4 713c
00000080: 3362 5ebb ebb2 113d e9ae 323d ed7c 7e3c
00000090: dee9 9cbb 751b f63c 39b8 dd3c a55c c53b
000000a0: b173 913d fe57 253d 99b7 cbbc 3917 1b3b
000000b0: 9255 75bc a881 083d 9ea9 84bd 9877 f13b
000000c0: 00d6 74bd 8584 7bbc 5f46 453d 94e3 4ebd
000000d0: 51ef 92bd 6335 84bd c005 92bd 6565 82bd
000000e0: d6dc 243d 28ce 373c e021 0d3d 328f 29bd
000000f0: 4022 d3bc 270c 74bd 1047 8ebc d01a 753d
00000100: 43a4 6e3d df6b 843d b256 193d 66fd 833d
00000110: 6ba4 883d e84b 933d e0be 6e3b c8b8 043d
00000120: 88be 853c 3ca1 8abd fa73 1a3d f64c 8fbc
00000130: 52c7 14bd 8235 4d3d 533c 0bbd ba91 803c
00000140: b4f2 4c3d 288f 57bd 9f4b 863c b648 72bd
00000150: d76d 3b3d e348 85bd 5903 a8bc b6fa c4bc
00000160: 802a 68bd 98b4 5a3d 4c23 16bd b7da 89bc
00000170: a6ff 00bd e0d4 dfbc d48f 923c ec39 463d
00000180: deb8 8a3c 56b9 56bc ba26 be3c b2fd 6c3a
00000190: 3463 31bd 3d65 823b 71c9 49bc fd3c 7abd
000001a0: 7749 82bd cb1f 67bc eeb8 523d 18f9 873d
000001b0: 09e2 1c3d ab5d 253c 8ef7 523d 8764 5ebd
000001c0: a159 1f3d e180 883d 33c9 40bd f53c 4a3d
000001d0: 93ec 51bd 3440 01bd 4bd9 923d df6d 87bd
000001e0: ee8d 58bd fa35 663d 3ced 493c 4160 cabc
000001f0: b946 6bbd 2e7a 8ebd 3292 23bd 05b7 313c
00000200: 0987 ed3b 34a0 063b 4206 2ebd 77de 873d
00000210: ae5f b3bc dbec 90bd eee1 ed3c 16d4 81bd
00000220: e614 ebbb 2ae2 76bd b8f6 73bc 6fb5 cabc
00000230: 2e1a 803c ea53 333d 40f6 d8ba 822d 07bb
00000240: 3d59 423d f24c 113c 3f85 20bd 2958 39bd
00000250: 0354 3dbc 945f 3fbd 82d1 e7bc 275c 28bd
00000260: 59a1 e03c 6c1d c3bc a43e 953c 10da b53c
00000270: e41f 3dbd d02b 54bb 0c4d 82bd 3749 6f3d
00000280: 35b4 593d 43f4 d63b c94b a43c c2cd ecbc
00000290: 67f7 d4bc 07cf 8cbd efcf 953a 258d 0b3d
000002a0: e3a4 633d 265b 96bc b418 8e3d 338e 633d
000002b0: db76 a7bc c652 ab3c cd82 5d3c f9d0 3b3c
000002c0: 5716 5a3d 6ceb 2cbd 90fc 3e3d 1584 413c
000002d0: 38f6 2f3d 1c3a 14bd c6d4 403d b319 a2bc
000002e0: fd7f 2b3d c4af 97bc 7154 d03c 8b43 1d3d
000002f0: 885b 01bd d28d bdbc f90f 86bc 686e 78bd
00000300: 9853 4fbc 1ddd a23c b437 8a3c 990a 003c
00000310: 3ac9 c63c 23fe 323d 66a7 353c 554b 99bd
00000320: 92ad 203d 7e55 24bd b745 c53c 2401 9cbc
00000330: b0a6 c93c 12a8 b53c 3760 6b3d b155 2a3b
00000340: 2c3c d7bc 8d34 8f3d dea8 16bc 9d13 aabc
00000350: 3436 87bd adb8 4a3d 1073 173d b592 00bd
00000360: 162b 7e3b f505 51bd 4c3a 9cbc 159e dfbb
00000370: 84c5 313d b1f3 103d 1f98 6dbd fb11 3ebd
00000380: e331 af3c 92fe 12bc 493d 8d3d 297f fcbc
00000390: 6d5d 1c3b bab5 61bd ef3d 11bc 76de 49bd
000003a0: 551d 9dbd 262a cdbc 5566 713d 3e2d cfbc
000003b0: 96a2 603c c912 22bd 8f86 9bbc 8c01 b93c
000003c0: c7e9 dbbc 0306 d0bc 980c b8bc 9da0 653d
000003d0: 2e6f b6bc c55d 2bbd 344b 753c dd70 50bd
000003e0: 7ba1 30bd 7351 f0bc 59a5 4d3d 5b3e 103c
000003f0: d116 55bd 98c2 dbba 52ba 93bd da60 933d
0.024211155 -0.025314532 -0.067691766 -0.0019667838 0.06105586 0.0070500984 0.015815837 -0.038216237
-0.043973386 0.009902055 0.01379265 0.058799908 0.06005002 0.036948133 -0.014923729 -0.04690506
-0.039894484 0.015270747 -0.044900946 0.051499456 -0.021582175 0.030791657 -0.024596449 0.010437811
-0.05073736 -0.06480613 -0.040709622 0.007809029 0.029598886 -0.044272065 0.06718973 0.014756293
-0.0033933043 0.03557102 0.04362384 0.015532714 -0.0047886213 0.03004239 0.027065383 0.006023007
0.071021445 0.04036712 -0.02486782 0.0023664965 -0.014974015 0.033326775 -0.064776644 0.007368993
-0.0597744 -0.015351419 0.048162814 -0.050510004 -0.07174552 -0.06455495 -0.07130003 -0.06366996
0.040249668 0.011218585 0.034456134 -0.041396327 -0.025773168 -0.059581902 -0.01736787 0.059840024
0.05826212 0.06465887 0.037436195 0.06444816 0.06671985 0.07192212 0.0036429688 0.032402784
0.016326204 -0.06769034 0.03770826 -0.017492753 -0.0363229 0.050099857 -0.033993077 0.015694488
0.050036147 -0.05262676 0.01639348 -0.059151374 0.04575905 -0.06508043 -0.020509409 -0.02404533
-0.056681156 0.053394884 -0.036654755 -0.016827924 -0.031493805 -0.027323186 0.017890848 0.048395082
0.016933855 -0.013105711 0.023211826 0.0009040489 -0.043307498 0.0039793537 -0.012316094 -0.06109332
-0.063616686 -0.014106701 0.051445894 0.06639308 0.0383015 0.010093133 0.051505618 -0.05429509
0.038903836 0.06665207 -0.04706688 0.04937454 -0.051251005 -0.03155537 0.071703516 -0.06612753
-0.05286973 0.05620382 0.0123246275 -0.0247041 -0.057440493 -0.06956898 -0.039934345 0.010846858
0.0072487635 0.0020542266 -0.042486437 0.06634229 -0.02189621 -0.070764266 0.029038396 -0.0633928
-0.007174122 -0.06027428 -0.014890365 -0.024744717 0.015637483 0.0437812 -0.001655288 -0.002062649
0.047448386 0.008868443 -0.039189573 -0.04525009 -0.0115556745 -0.04672201 -0.028298143 -0.04110351
0.027420687 -0.02381774 0.018218346 0.022198707 -0.04617299 -0.0032374747 -0.06362352 0.058419432
0.053150374 0.00655988 0.020055668 -0.028906707 -0.025996877 -0.06875425 0.0011429767 0.034070153
0.05557717 -0.01835401 0.069383055 0.055555534 -0.020442417 0.020913493 0.013519955 0.011463397
0.05324396 -0.042216703 0.04662758 0.011811276 0.042959422 -0.03618823 0.047077917 -0.019787645
0.041870106 -0.018516429 0.02543089 0.038394492 -0.03158143 -0.023138914 -0.016365038 -0.060652167
-0.012654208 0.019880826 0.016872264 0.007815027 0.024265874 0.043699395 0.011087274 -0.074850716
0.03922803 -0.040120594 0.024081094 -0.019043513 0.024615616 0.022174869 0.057464805 0.0025991017
-0.02627381 0.06992445 -0.0091955345 -0.020761305 -0.06602135 0.049492527 0.036974967 -0.03138991
0.0038783005 -0.05103107 -0.019070767 -0.006824265 0.043401256 0.035388652 -0.058006402 -0.046403866
0.021386093 -0.008971827 0.06896455 -0.030822353 0.0023859397 -0.05510495 -0.008864864 -0.04928442
-0.0767161 -0.025044512 0.058935482 -0.025290128 0.0137106385 -0.039568696 -0.018985061 0.022583745
-0.026844872 -0.025393492 -0.022466943 0.056061376 -0.022269811 -0.041837472 0.014971543 -0.050888885
-0.04312275 -0.029335713 0.050206516 0.008803929 -0.052023713 -0.0016766367 -0.07213272 0.07196207

conv2.bias f4 [64]
00000000: b5ff 13bd 9cbf 7f3d e79c fe3b 3228 553d
00000010: 5ad4 3f3c 8696 8fbd 9665 ef3b b1c0 31bd
00000020: 1546 86bd 92c7 9e3c 7482 fdbc f60b 2f3d
00000030: 4369 1e3d 44c1 3b3d 8197 9abd 5918 af3b
00000040: 404d b83c fa62 86bd 17b8 7dbd c016 afbb
00000050: 17b0 cc3c fb4d 43bd 5fe8 bbbb ae13 1cbc
00000060: 9b47 2ebb 3ff4 e73c 0cac fc3b 369f 31bd
00000070: 1378 76bd 515f 5bbd a028 613d bd03 043d
00000080: 2898 e8bb 77c1 9f3d e552 c83d f604 c9ba
00000090: 7a9b 16bd 3c17 f7bc ca66 c93b 3cb6 393d
000000a0: ab3b 823a a5cb 86bd 0951 c33c c65d 873d
000000b0: f6e5 463d ae90 57bd 0b62 7fbd 4579 e1bc
000000c0: f063 f53c 7916 bf3d e880 ecbc 1fdd a63d
000000d0: bc52 a73c 46ab 913b 3e9d 1d3d 88db 69bc
000000e0: df63 be3b 5626 503d 7501 ffbc 0eab 363a
000000f0: ec7c 70bd a986 b9bc 9d4d 3b3d 52a5 2ebd
-0.036132533 0.062438592 0.007770169 0.052040286 0.011708343 -0.07011132 0.007305811 -0.043396655
-0.06556336 0.019382272 -0.030945994 0.042736016 0.038674604 0.04583861 -0.07548428 0.0053434786
0.022497773 -0.06561847 -0.06194314 -0.005343288 0.02498631 -0.04768179 -0.005734488 -0.009526176
-0.0026592973 0.028314708 0.0077109393 -0.043364726 -0.060173105 -0.053557698 0.054970384 0.032230128
-0.0070982166 0.07800572 0.09781436 -0.0015336561 -0.036769368 -0.030162446 0.0061462866 0.045339808
0.0009935995 -0.06581811 0.023842352 0.06609683 0.04855915 -0.05262821 -0.06234936 -0.027523646
0.02995488 0.09330458 -0.028870061 0.08147644 0.020425193 0.004445466 0.038480036 -0.014273532
0.0058102454 0.05081781 -0.031128624 0.0006968238 -0.058712885 -0.022647219 0.045728315 -0.04263813

lstm.weight_ih_l0 f4 [256, 64]
00000000: 84b0 733d ac7d 62bd 7e89 193e 32ea c7bd
00000010: df95 bd3c f63e 44bb a0b3 ad3c 7cdb ae3a
00000020: dc63 a0bd b3de 173c fd6e aebc 8023 043e
00000030: b672 d33d e114 0ebd 4616 82bc 359a 963d
00000040: 1382 10bd 003d 76bb c9b4 9d3d 1492 daba
00000050: 4edd da3d 7211 e0bd 8672 123b 1951 9e3c
00000060: 4871 2dbd c082 fbbc 8850 a5bd 0301 e4bd
00000070: f7e5 3ebd f3cc aa3c bfaf 70bc 9e23 1b3e
00000080: e3d2 823d 5f74 873d 6e46 033d 7851 343d
00000090: 04da ecbd a881 d4bc 1eac e43d 6ef5 fa3d
000000a0: f03b 8dbd 1073 17bc 89fa 483d 1877 3f3d
000000b0: fb5d 033d 84b3 37bd 362d a8bd e337 963c
000000c0: cac1 2dbd fb99 bd3b 399e fabc 9767 7bbc
000000d0: a0d8 f23c c2d4 f53d 0f39 023e 36ec 0b3e
000000e0: e6fc 51bd cca8 383d 3aea 003d bb80 fb3d
000000f0: 2f79 bb3d f825 d03d 5ddd 8abd b490 14bd
00000100: 68d8 dcbc 0034 ae3d cec5 963d 7403 083e
00000110: 57b6 133e c8e9 c6bd b2cf acbd 566b f43c
00000120: 7623 db3c 64ee f3bb d84c 6dbd ad66 10bd
00000130: 38a3 003d d5c8 85bc 0a32 d4bd a337 03be
00000140: 67f3 4f3d 1ed9 bdbd 6e39 713c 72c4 773d
00000150: 8caf 633d 8047 543d 6c13 983d 905d 143d
00000160: 9e78 a93d 465f 92bc b18a 1cbc 0da2 b6bb
00000170: e64e e2bd 2779 70bd ba99 e43c cbd4 5abd
00000180: c442 a33d 8007 263c 177c bfbd a401 ad3d
00000190: ca2a 83bd a044 ce3d fda0 f43d f966 c4bd
000001a0: 007d 6b3a d9c2 bf3d 6d04 9abd bb6d d23d
000001b0: f765 c53d 26df b93d 5b73 833d d479 fe3d
000001c0: d20c e1bc 6d5d f73d 2863 31bd 1eee 77bc
000001d0: 532f 65bd c8dc 00bb c6d5 45bd a822 57bd
000001e0: 6b83 d73d 179a 763d 1241 0a3e ed20 16bd
000001f0: db71 8f3d cad7 e5bd 5e29 afbd b82e ddbd
00000200: 708a 48bd c45f 653d b77b cf3d 9baa 24bc
00000210: eeb1 e03c 70a5 00be cecf e73d 14e2 f8bb
00000220: b56e 363d 5fc6 a7bd e6ff 17bd c56d ef3d
00000230: dcc4 59bd bd2f 2e3b e677 0cbd 6de5 dc3d
00000240: 16a2 d63c 28c5 58bd 9437 d03d ecf5 c0bc
00000250: 7a91 67bd 00ea d2bb a3ec 643d 7eb4 ea3c
00000260: f66c fb3d eba6 e93d a05b d1bd 32f1 8fbd
00000270: c3f4 1e3d 31db d9bd bd75 543d 39d6 9bbc
00000280: aa1d 9ebd 2ed2 433d 0491 2bbb a20a a73d
00000290: 9c8c 413d 908c 50bd e841 0ebd 4297 643c
000002a0: 0a78 d63d 345d ce3d f586 3a3d dea0 e73d
000002b0: 5d7a 963c de7e ebbd 25d6 90bd 5375 b83d
000002c0: aebe eabc c69b 6c3d c76f 70bd 0370 e63d
000002d0: c6eb ca3d ab71 34bd f589 5b3d d486 663d
000002e0: 4c4f 6abc 3541 cc3d 0068 4dbd 2346 d43d
000002f0: ff7e 54bc a0f4 eabc 4d78 fbbc 28d9 7b3d
00000300: 00d4 3fb9 ac9e 293d 683a 4d3d 0f69 cdbc
00000310: 89c2 aabd 4307 bbbd 806c a9ba 2363 ee3d
00000320: 111c b53d 6eb4 8f3d a029 fbbd 62a9 3dbd
00000330: 0038 6eb9 cd2e 903c 1a13 df3b 207f 9ebd
00000340: d206 95bc 1edf 8fbd b078 04bd 582e fd3d
00000350: 97d3 cd3d 4c20 d2bd 1cd6 c8bd 24b5 94bc
00000360: 66e7 fb3d d1dd 7bbd b0a8 8abd 59d7 0c3c
00000370: 3732 e3bc 64bb c9bd f91e 0c3e fb0b 523b
00000380: 19d8 933d 75ec 123e 92c4 a5bd c808 3bbd
00000390: 703d 38bd cc80 fe3d 08a2 51bd d7f9 aa3d
000003a0: 0064 d2bd afd8 7e3d eff4 78bd 2e68 3b3d
000003b0: b808 a73d 50ea 4f3d e8df 7abd 2099 853d
000003c0: 1ed3 cf3d a607 95bc 31fe 163e 3fca 273d
000003d0: 6067 aa3d 4b99 4bbd c274 d13d 9fea 5abd
000003e0: f2c6 fb3d d203 a23d 10c2 5e3d 112a 83bd
000003f0: 4deb 92bd 48f1 8fbd 8225 993d 0080 6cb9
0.05949451 -0.05529563 0.14993855 -0.09761466 0.023142753 -0.0029944754 0.021203816 0.0013340558
-0.07831547 0.009269404 -0.021293158 0.12904167 0.10324614 -0.03468788 -0.015879761 0.073536314
-0.0352803 -0.003757298 0.07700498 -0.0016675615 0.10686742 -0.109408274 0.0022346093 0.01932578
-0.04234436 -0.030701995 -0.08072001 -0.111330055 -0.04660603 0.02084968 -0.014690339 0.15150306
0.0638788 0.06613993 0.03204959 0.044023007 -0.11565021 -0.025940731 0.11165641 0.12253843
-0.06896198 -0.009243742 0.049067054 0.046744436 0.03207205 -0.044848934 -0.08211748 0.018337196
-0.04242114 0.005786178 -0.030593025 -0.015344522 0.02964431 0.12003471 0.12717079 0.13664326
-0.051266573 0.045082852 0.031473376 0.12280413 0.09153973 0.10163492 -0.06780503 -0.036270812
-0.02695866 0.08506012 0.07361947 0.13282567 0.14425026 -0.09712559 -0.08438052 0.029836338
0.026750308 -0.00744419 -0.057934612 -0.03525417 0.031405658 -0.016331116 -0.10361107 -0.12814192
0.050769236 -0.092699274 0.014723165 0.06049008 0.055587336 0.051826 0.074255794 0.03622204
0.08274959 -0.017867696 -0.009554551 -0.005573517 -0.11050205 -0.05870929 0.027905334 -0.05342559
0.07971719 0.010133624 -0.0934984 0.084475785 -0.06404646 0.10071683 0.119447686 -0.09589953
0.0008983165 0.09363336 -0.075203754 0.10274836 0.09638589 0.09075765 0.06418487 0.124255806
-0.027471934 0.120783664 -0.043307453 -0.015132455 -0.055953335 -0.0019662846 -0.048299573 -0.052523285
0.10523113 0.060205545 0.13501385 -0.036652494 0.07004138 -0.11222799 -0.08552812 -0.107999265
-0.04896015 0.055999532 0.101310186 -0.010050441 0.027428593 -0.1256311 0.113189325 -0.00759531
0.044539172 -0.08192133 -0.03710928 0.11690859 -0.053166255 0.0026578747 -0.03429403 0.10785947
0.026200335 -0.052922398 0.10166851 -0.023554765 -0.05653522 -0.0064365864 0.055889737 0.028650519
0.12276642 0.1140879 -0.10222554 -0.07028426 0.03880764 -0.106375106 0.051870096 -0.019023048
-0.07720502 0.047807865 -0.0026178965 0.08156325 0.047253236 -0.0509153 -0.03473082 0.013952078
0.104721144 0.10076371 0.04553886 0.1130998 0.018368894 -0.11498807 -0.07072095 0.09006753
-0.028655376 0.057765745 -0.05870035 0.11251833 0.099082515 -0.044053715 0.053598363 0.056280926
-0.014301132 0.09973375 -0.05014801 0.1036494 -0.012969731 -0.0286811 -0.030697012 0.061486393
-0.00018294156 0.041411087 0.05010453 -0.02507451 -0.08337886 -0.091322444 -0.0012926012 0.116400026
0.08843244 0.07016836 -0.12263799 -0.046304114 -0.0002271831 0.017600441 0.006807697 -0.07739091
-0.018191729 -0.07024978 -0.03234166 0.12362355 0.10050123 -0.102600664 -0.09806463 -0.01815278
0.12299995 -0.061490837 -0.06770456 0.008596265 -0.027733905 -0.09850195 0.1368369 0.0032050598
0.07218952 0.14348014 -0.080941334 -0.04566267 -0.044980466 0.1242691 -0.051179916 0.083484344
-0.1027298 0.062218364 -0.060780462 0.04575365 0.0815596 0.050760567 -0.06124869 0.06523347
0.10147689 -0.018192124 0.14745404 0.04096436 0.083204985 -0.04970674 0.10227348 -0.05344641
0.12293805 0.07910885 0.05438429 -0.06404508 -0.07173786 -0.070284426 0.07477857 -0.00022554398

lstm.weight_hh_l0 f4 [256, 64]
00000000: 4820 b53d 1aac f6bc a51a a13d 4e92 b73d
00000010: 7788 e93c 3ba5 503d 6d42 3dbd 40fa 92bd
00000020: be33 903d e52d c13d 4aaf c9bd 5eed e43d
00000030: 2ad6 7cbc 6b8e 813d de46 cabd 2a87 863a
00000040: b983 163d f2e4 853d b4e1 aa3c e010 16be
00000050: 78f7 8ebc b5f6 fbbc 4de1 81bc 2ba7 12be
00000060: a6cc 0dbc 8d7b 4bbd 2bb2 2fbd 9ac7 a4bd
00000070: 3525 afbd aae2 0c3e e3b2 a13c 325b ac3d
00000080: bff4 bc3c 362d 0bbe e1eb b73d 5b0c 93bd
00000090: 786a 60bd 98b4 febb e6f6 7abd 7630 753d
000000a0: 19ad 533c 036e c93d d894 dd3d ca03 2e3d
000000b0: 108b d93c 252e 68bd 266b 083e d860 9bbc
000000c0: 604b ed3d 4cfe 3b3d f88a 8e3d 7a33 e8bd
000000d0: ce2d a9bd 9be4 10bc 233a cbbd e028 ff3d
000000e0: d4d9 ebbd 2bcf 8b3d 3486 9aba d292 d43c
000000f0: 0f5a d9bc ed3c ccbc 9a80 d1bc 6a77 85bd
00000100: 5b0c fdbd 1221 dbbc d720 d03d fc35 59bb
00000110: 87a3 f03d bc85 083e 1e62 02be 5556 8f3d
00000120: 5b2c 053e 79fa e5ba a3d0 2e3d d024 793d
00000130: e5cc 173c 3b53 bb3d dac4 e6bc e42e 92bd
00000140: 3de3 87bd b3b3 db3c 8572 c63b f4ca 8f3d
00000150: 3750 03be e57c c73d d365 88bd 7469 c7bd
00000160: 376c 9fbc 9ab3 043c 8a0e 7abd 8ad7 9b3c
00000170: b7cd 043e eb04 c3bc 0a7a a5bd c25f 553c
00000180: bb0d 273c 34de ab3d 809e cabd ee54 483d
00000190: b6a2 f5bd 90f3 ae3d 614f bebd 62e7 793c
000001a0: e9e5 263d 1596 a53d c0b8 16bd 2c9f ba3c
000001b0: fb84 e1bc 660a 11be d2d1 cd3d b6d2 be3d
000001c0: 83b3 613d 4cbe 4739 3ae2 0fbe 985a 6a3d
000001d0: b8df c33d b9fa 94bd 6959 e8bd 6941 6fbd
000001e0: 576f 05be f4d7 aabd 5e4b 8f3d e1cd db3d
000001f0: 6345 fc3c e0c1 93bd fc67 08be 7f8d b2bd
00000200: a94b b63d 5c3a 673c b8a1 a5bd 0904 22bc
00000210: 2aeb 87bd 711f 063c d7f3 113c 7da1 22bd
00000220: 2e36 58bc 556d 91bd 5bc1 0d3d e0e4 c4bd
00000230: a606 82bd f74c d13d 0234 0dbe 9bba 2c3d
00000240: 9c05 97bd ad8f 1dbc 463a 87bb a059 a33d
00000250: f87a cc3d fb02 febd 34f0 94bb efcb 273d
00000260: f812 d7bb 8416 b1bc 1b30 cc3d fb5e 873d
00000270: 5f00 9fbd d7ca 2d3d 9646 45bd a417 0cbd
00000280: 70f8 633d 6111 a33d db51 973c 0515 103c
00000290: 3819 a6bd b9e3 88bd 9051 82bd de68 da3c
000002a0: 7f99 afbd f959 a6bc 84a3 97bc 4638 ae3b
000002b0: 4cc4 22bc 29e9 debc 536f e03d 6f69 6c3d
000002c0: 8611 aabd 2c7d 5fbd 25c6 d03d 5b8c bfbd
000002d0: b4cd 923d 69f8 15bc 7d8c c23d cd92 213d
000002e0: dfce 763d c643 eb3d 3f1c b8bb f8b9 56bc
000002f0: ba67 cabd ae5a 723d 67b7 37bc 0e6c cbbd
00000300: 74a6 2cbd 4929 e5bc a138 8bbd e5b6 773b
00000310: 89c6 a4bd 093a debb dd6c 7f3d 9a9d 3f3d
00000320: 900e fc3d 3d77 97bd 2392 bf3d e43b cbbd
00000330: 3bb6 e8bc 2109 afbd e115 bc3c 1a86 f5bd
00000340: 6685 eb3d db9f 02bc f5f9 a4bd a3f8 853d
00000350: fd2b d5bd 4024 d0ba d3fb b53d bd55 713c
00000360: d163 dabd a107 993d 9f2f 8e3b 258c 3bbd
00000370: b8d9 ccbc ad5f 3b3d fcb1 17be 3f5a b73d
00000380: 10f8 86bc fcdf 2a3c 78fd d2bc 30b3 e33c
00000390: 9cbe 08be 1376 4f3d 0f33 e8bd 5b52 a9bd
000003a0: b67c 77bc 4a7f d33c 8e2d 003e 5abb d83d
000003b0: 735b 893c b8b3 c13d b9c3 af3d 52d1 4f3c
000003c0: a0fb a43c 10a2 99bd b92b a4bd 4076 cb3d
000003d0: 8d1e c53d c24c cebc 50cb 16bd 201b 19bd
000003e0: a9ad 9bbd b228 52bd aaa8 be3d 3945 b73d
000003f0: 00ce 313c 6ed0 f0bd cd81 c43d 0938 d5bd
0.08844048 -0.030111361 0.0786641 0.08963452 0.028507454 0.050938826 -0.046205927 -0.07176638
0.07041119 0.09432582 -0.09847887 0.11178087 -0.01543192 0.06325992 -0.09876798 0.0010263671
0.036746714 0.065378085 0.020859577 -0.14654875 -0.017451987 -0.030757288 -0.015854502 -0.14321582
-0.008654749 -0.049678374 -0.042894524 -0.080458835 -0.085520186 0.1375834 0.01973862 0.084158316
0.023065923 -0.13591465 0.08980537 -0.07180091 -0.054789037 -0.0077729933 -0.061270617 0.05986067
0.012919688 0.09835436 0.10819405 0.042484082 0.026555568 -0.05668463 0.13322124 -0.018967077
0.11586642 0.045896813 0.069601 -0.113379434 -0.0826069 -0.008843566 -0.09923198 0.12458968
-0.11516157 0.068266235 -0.0011789263 0.025948916 -0.026532201 -0.024931395 -0.025574017 -0.06516917
-0.12355872 -0.026749168 0.10162514 -0.003314375 0.1174994 0.13332266 -0.12732741 0.069988884
0.13005202 -0.001754596 0.04267944 0.060826123 0.009265159 0.09146734 -0.028170038 -0.0713785
-0.06635139 0.026819086 0.0060561323 0.07021132 -0.12823568 0.097406186 -0.066600464 -0.097369105
-0.01946078 0.008099461 -0.06104902 0.019023675 0.12969099 -0.023806056 -0.08079918 0.013023319
0.010196145 0.08391991 -0.09893513 0.04890912 -0.11993925 0.085425496 -0.09292484 0.01525292
0.040746603 0.080852665 -0.036797285 0.022780977 -0.02752923 -0.14164123 0.10049786 0.09317534
0.055102836 0.0001904901 -0.14051142 0.057215303 0.09564155 -0.07274384 -0.11345179 -0.05841199
-0.13030754 -0.08341971 0.06996797 0.10732628 0.030794805 -0.07214713 -0.13320917 -0.087183945
0.0890115 0.014113035 -0.08087486 -0.009888657 -0.06636651 0.008186207 0.008908234 -0.03970479
-0.013196511 -0.071009316 0.034608226 -0.09613967 -0.06348924 0.10219758 -0.1378937 0.04217015
-0.07374117 -0.0096167745 -0.00412682 0.07976079 0.09984392 -0.12402912 -0.004545236 0.04096597
-0.0065635405 -0.021617182 0.09970113 0.06609913 -0.07763743 0.04242977 -0.04816302 -0.034202233
0.05565685 0.07962299 0.018471649 0.008794074 -0.08110279 -0.0668406 -0.06363213 0.026661333
-0.08574199 -0.020306574 -0.018510588 0.005316767 -0.009934496 -0.027210789 0.109587334 0.057717737
-0.083041236 -0.054562733 0.10194043 -0.093529426 0.07168141 -0.009153464 0.09499452 0.03944664
0.06025588 0.11487536 -0.0056186016 -0.013105862 -0.098830655 0.05916851 -0.01121316 -0.09932719
-0.04215093 -0.027973788 -0.067979105 0.0037798223 -0.0804568 -0.0067818207 0.06235968 0.04678116
0.12307465 -0.0739579 0.09354045 -0.099235326 -0.028407207 -0.08546663 0.022959651 -0.119884685
0.11500053 -0.007972683 -0.08055488 0.06541564 -0.10408781 -0.0015879944 0.08885922 0.014729914
-0.1066357 0.07472158 0.004339173 -0.04578795 -0.02500616 0.04574554 -0.1481399 0.0895276
-0.016475707 0.010429379 -0.025755629 0.027795404 -0.13353962 0.050649714 -0.11337864 -0.08267661
-0.015105417 0.025817532 0.12517378 0.105826095 0.01676724 0.09458107 0.08582253 0.012684183
0.020139515 -0.07501614 -0.08016152 0.09934664 0.09624968 -0.025183085 -0.036814988 -0.037379384
-0.076014824 -0.05130834 0.09309514 0.0894875 0.010852337 -0.11758505 0.0959507 -0.104110785

lstm.bias_ih_l0 f4 [256]
00000000: a374 083d 5a95 433d b559 9f3c 98bd cb3d
00000010: 48fe 5a3d 844b 343d cc96 98bd 6ecb 2fbd
00000020: e562 d0bd b524 e33d 237e ea3d 8d3c 69bd
00000030: 3149 84bd 7a33 913d fc4a 30bd b811 b93d
00000040: b5f8 20bc 7294 003e 14d5 3fbd e170 d53d
00000050: 299e e03d a575 993d 64f2 ddbd 1118 85bb
00000060: aa29 993d 07ca ed3d ca06 fe3c 9155 2e3d
00000070: 0011 29bc 0c0b e83c 8d99 0d3e 9649 063d
00000080: 4f8b 52bd 4c05 973c 0351 193e c5df 0ebd
00000090: 7553 d03d d19d 03ba 9150 9f3d aacb 823d
000000a0: 408c 053e ab6d babd ac2b c9bd 33cf a03c
000000b0: eee2 d33d 35e8 cf3d 6541 9b3d ea64 79bd
000000c0: 145f b8bc 419f c9bd b169 92bc 00a9 3cbd
000000d0: 1ec5 7cbd 5b5a 5fbc c7e7 ba3d bea1 733d
000000e0: 9b7b aabd ba77 c9bd 0fbb 9fbd 0610 6d3d
000000f0: 0ef9 7bbc ee9d 28bd 8ab5 1ebd 9f23 bbbd
00000100: 7850 b8bd f4a2 8fbd 85a5 c8bd 47b2 ce38
00000110: 8619 fe3d 31af 623d b70b 2bbd 8c62 e13d
00000120: d4eb e73d c29c 82bd 36e7 5ebd 51ac aabc
00000130: 155c 1ebc ee3c dcbd b242 133d f780 f1bc
00000140: 6eea 003e a67e 50bd 9a56 403d a046 c8bc
00000150: 5b87 553b 102a e0bd c02b 9e3d 792b 043e
00000160: fd37 aa3c dddb 533d c51b 873d d40c 923c
00000170: 4460 013e 8987 dbbd a56b d83d 4f44 3dbd
00000180: 33ed 6bbb 8870 8abd 8275 a2bd b1f2 4bbd
00000190: a8aa 7538 1668 cf3d 44b0 633d f9dc c93d
000001a0: 77eb 79bd 8545 92bd dcf6 c3bd 95ae a4bd
000001b0: 7fdd 103e 6d37 5f3d 9322 cd3d 607d 9cbd
000001c0: 63df bf3c aa1f 46bd 70a5 0bbe 3fb1 b43d
000001d0: 9aff f13d cef2 a93c 231e a8bd 6e9a 643d
000001e0: fafd a03d 686f 85bd 233f acbd 691f c73d
000001f0: 1c7e 3ebd 4d9f a63c 5d14 853d bd0b 19bd
00000200: 1bb5 e5bd 4150 543d 36b4 8cbd ed7b 063e
00000210: 87be 53bd 9b19 b5ba aa84 e2bd 7cc0 853d
00000220: 5140 123e 977b 3ebd 3733 1abd df31 c23c
00000230: a63a 0cbe 2064 a4bc fa01 3ebd 14a5 28bc
00000240: 97e6 f93d aed6 e63d d572 e0bd cd4d d33c
00000250: f21b e5bc b2c1 173d f71f 9dbd d609 b8bd
00000260: eaa5 2fbd 7f9d 863d cedc dabd 3279 02bd
00000270: af08 11bd cfb5 803c 442c 2ebc 1e05 8f3d
00000280: 1b58 a33d 17b1 853d 6bfe 083d 188f 9bbd
00000290: 5e87 27bd e5ff c93d 368c 8e3d ea1f 283d
000002a0: 163f ba3d 3d8d a2bb cb8f 8a3b 05ce 04be
000002b0: 11c0 35bc 2d6b c43d 9e9f 983d 9a8a 8fbd
000002c0: 540e 9d3d d7a1 ec3d 6fdc c1bd 1872 d2bd
000002d0: 0100 823d 878c 25bd 2620 b73c 3c70 0c3e
000002e0: 8d24 dcbd c7d3 983d a27a ccbd f530 ee3c
000002f0: 1804 103e 31f5 09be 5905 bfbd f6fb 81bd
00000300: 2e8f 2e3d 468a 773d 7c57 94bd b60a 063e
00000310: 8519 4ebd 527a 623d 3c40 8f3c e4de 6c3d
00000320: 853b 793c 35dd 7bbc e72c 693d 48e5 02bc
00000330: f7e0 c8bd b46d 3cbd 47ad 773d cac5 91bd
00000340: 2ac7 033d 1566 a9bc 2b84 b9bd b8da 43bd
00000350: 735a 74bd 359d eb3d ed31 c3bb 55cd 98bc
00000360: 3863 25bd c4ea b13d 9880 9d3b 2d88 e5bb
00000370: 635f 72bd 797a c63b 3550 98bd ad58 d6bd
00000380: 1034 61bd 3b79 f13d 5071 c1bb ddae 973d
00000390: 44d8 693d 8b82 84bc 8c9a 8cbd d789 28bc
000003a0: d74e 1bbc 4d0b 183c 8978 0dbe cbbc 03be
000003b0: 1731 b2bc 3337 483c 481c 173d 43f7 223c
000003c0: 180f f23b a217 dabd de33 00bd bbf1 b63d
000003d0: 7167 d0bd 5639 2bbc e0fd fe3c 3535 bf3d
000003e0: bfc9 51bb 7ee0 df3c 5b30 48bd ed62 f13c
000003f0: 32c0 d13d e2d7 4f3d 8271 56bc 9795 4c3d
0.03331436 0.047749855 0.019451955 0.099482715 0.053465158 0.04401733 -0.07450637 -0.042918615
-0.10175113 0.11090986 0.1144984 -0.05694251 -0.06459273 0.070898965 -0.04304026 0.09036583
-0.009824921 0.12556627 -0.046834067 0.104219206 0.10967667 0.07493142 -0.10837248 -0.004061707
0.0747865 0.11610799 0.031009097 0.04256207 -0.0103189945 0.02832558 0.13828106 0.03278502
-0.051402386 0.018435143 0.1497231 -0.034881372 0.10172168 -0.000502077 0.07779039 0.06386502
0.13041782 -0.09102949 -0.09822783 0.01963005 0.10346018 0.10151712 0.075808324 -0.060887255
-0.022506274 -0.098448284 -0.017872663 -0.04605961 -0.061711423 -0.013632382 0.09126239 0.05948042
-0.08324357 -0.09837289 -0.077993505 0.05787661 -0.0153792035 -0.04116624 -0.038747348 -0.091376536
-0.08999723 -0.07013503 -0.09797195 9.856052e-05 0.12407212 0.055342857 -0.04175922 0.110051244
0.113242775 -0.063775554 -0.05441972 -0.02083412 -0.009665509 -0.10753809 0.035952277 -0.02948044
0.12589428 -0.05090203 0.04695759 -0.02444774 0.00325819 -0.10945523 0.077231884 0.12907209
0.02077865 0.05172335 0.065970935 0.017828383 0.12634379 -0.10719211 0.105674066 -0.046207722
-0.0035999536 -0.06759745 -0.07932569 -0.049791995 5.8571488e-05 0.10127275 0.055588022 0.098566
-0.061015572 -0.07142166 -0.09568569 -0.080411114 0.14146994 0.054496218 0.1001636 -0.07641101
0.023421949 -0.04837004 -0.13637328 0.088228695 0.1181633 0.020745661 -0.08208873 0.055811338
0.07860942 -0.0651539 -0.0841048 0.09722788 -0.046506986 0.020339632 0.064980246 -0.03736471
-0.11216184 0.05183435 -0.0687031 0.13133211 -0.051695373 -0.0013816835 -0.1106046 0.06530854
0.14282347 -0.046504583 -0.0376465 0.023705421 -0.13694248 -0.020067275 -0.046388604 -0.010293264
0.12202185 0.11271416 -0.109594025 0.025793934 -0.027967427 0.037049957 -0.076721124 -0.08986251
-0.042882837 0.06573009 -0.106866464 -0.031853862 -0.035408672 0.015711693 -0.010630671 0.06983398
0.07975789 0.06527918 0.033445757 -0.07595652 -0.04090058 0.09863261 0.06960337 0.04104606
0.09094064 -0.0049606846 0.0042285672 -0.12969215 -0.0110931555 0.09590755 0.074523196 -0.07008858
0.076687485 0.11554306 -0.094658725 -0.10275668 0.06347657 -0.04041722 0.022354197 0.13714689
-0.10749159 0.07462268 -0.09984328 0.029076079 0.14064062 -0.1347244 -0.09327192 -0.06346886
0.042617016 0.060434602 -0.07243249 0.13090023 -0.050317306 0.055292435 0.017486684 0.057829753
0.0152119445 -0.015372564 0.056927588 -0.007989235 -0.09808534 -0.04600306 0.060467985 -0.071178034
0.03217236 -0.02067856 -0.09058412 -0.04781601 -0.05965657 0.11504594 -0.0059568794 -0.018652597
-0.040377825 0.08687356 0.0048065893 -0.007004759 -0.059173 0.0060570803 -0.07437173 -0.10466132
-0.05498129 0.11790701 -0.0059034005 0.074063994 0.057091013 -0.016175529 -0.06865415 -0.01028677
-0.009479246 0.009280038 -0.13815512 -0.12864988 -0.021751923 0.012220192 0.036892205 0.009946647
0.007387053 -0.10649039 -0.031299464 0.08932825 -0.1017598 -0.010450682 0.031126916 0.0933632
-0.003201112 0.027328726 -0.04887424 0.029466117 0.102417365 0.05074299 -0.013088586 0.049947347

lstm.bias_hh_l0 f4 [256]
00000000: eb86 84bd 6a73 923d e814 15bd 1fa7 0abd
00000010: 22ed 98bd ce1a 02bd 4055 acbd 0142 f73d
00000020: feda 64bb 84d9 2dbc 1826 68bd eed6 993d
00000030: df88 9fbd 8b3f 4bbd 084f 163d 0fc3 82bd
00000040: 7816 733d 010b ee3d 7588 83bc 382f 863d
00000050: 8baa d43d 0b72 eebc 2afd 35bd a993 f03c
00000060: 3112 8d3d 1e86 59bd 7901 8abd 8586 bbbd
00000070: 9837 8dbd 80fa a53d 4807 e13d 0d7a 033e
00000080: 3c89 89bd c732 ee3c 3106 f93d 4894 23bd
00000090: 5f6a 98bc 24c8 eebd ac85 f13c fe95 c5bd
000000a0: 0181 83bd 2130 19bc 216c f0bd f42d 83bd
000000b0: f4a7 783d 52c0 d73d 49e6 ffbd 6d40 bbbc
000000c0: fc43 d13d 74a7 71bd 4189 8e3d 9b41 81bb
000000d0: 0ea7 2abd 973a 173e a3a7 e7bd fa77 c4bc
000000e0: 06d1 7f3d 6ec0 813d d311 d33d d4c9 813d
000000f0: 824e c83c 237b bebd f039 64bd cc27 43bd
00000100: 70d3 a0bd 78f7 4cbd b89e 8d3d c450 803d
00000110: 4de6 46bc 6ac4 363d da7b b3bb c601 43bc
00000120: 98a3 c5ba 196f cd3d 515b 313d c927 0b3e
00000130: b330 ef3d 23c2 693c 01b7 983d 5415 f7bd
00000140: 94c4 a0bd 7bd8 3ebd 2eb1 4f3d 4c02 03bd
00000150: c092 64bd 00f2 c0bd 158b f33d a13e 4e3d
00000160: 9608 f03d 2e09 143e 7f78 bdbd 91d1 0c3d
00000170: c1ad 2fbd 3e28 ee3d 354f f13a fd53 8cbd
00000180: 83d6 693c bcd2 013e af62 87bd f514 98bd
00000190: 6479 c6bd 58f6 ca3d 6fc3 a03d 3c6c ec3c
000001a0: 0e92 ae3d 4bb3 abbd 9be9 2bbd 337b 1cbd
000001b0: 56b9 94bd 638d 02bd 6549 17bd 0640 03be
000001c0: e334 d4bc 9b4a d73c fe65 14bd 2fa8 87bd
000001d0: cf2c c6bc 4f2a be3d 63f3 a23d 6e79 5b3d
000001e0: 42e0 61bd b2a5 16bd 3b81 343d 7853 65bd
000001f0: fac0 0a3e 5a76 cdbd e52f 19bb 53e3 9f3d
00000200: ef7c 92bd f08b 2c3d 26cb 05bd df1b 54bd
00000210: 5614 983d 0130 843d 2fae f43c 2f57 de3c
00000220: 1b2a e93d a11d bdbc 3663 043e ba0b 86bd
00000230: 3dfa 6fbd 7522 483d 5910 f53c 6dad 7fbd
00000240: aca2 c5bd f79c 543d d136 a0bd 4052 68bd
00000250: 71bf 7c3d 7aea d13c bec4 e2bd e6be 18bd
00000260: d89a 19be bc66 0a3d e314 d0bd 60e3 ab3d
00000270: c74b cfbd 9517 bbbc d915 b1bd a119 e5bd
00000280: 51e1 323c d583 fbbd c58d 65bd cc1f f3bd
00000290: 6c4d 4cbd bfd0 813d a86e f6bd 5a1c 683d
000002a0: 466d 94bc e13a 99ba 799e 37bd 118e dabc
000002b0: a1c5 9abd 40de 6abd d42d 5abd 4318 09bd
000002c0: 1381 ee3d b765 a03d e4ab 033e b3eb eb3d
000002d0: 53f8 fcbd fe66 0dbe a423 b1bd 3c71 0a3d
000002e0: 81c0 7dbd b155 b3bd 5265 60bd f6f6 873c
000002f0: 34af 1cbd 1c46 623c 9e3e a6bb bf5a 583d
00000300: 12f8 b13c 2f7f 9bbd 14c3 88bd 41b4 62bd
00000310: 7e94 3fbd 4cb7 dabd 4daa d73d cb28 b1bd
00000320: f406 4abd f346 473d c4a8 9e3c 1c82 043e
00000330: ac90 40bd ebaa 773d 34f5 8b3c 3542 d2bd
00000340: 9c24 ee3d 7c51 fc3d bf54 4cbd 3822 0a3e
00000350: 4e66 213d 3040 ccbd fdff f23d a2d5 34bd
00000360: 8c96 c73d f518 b6bd 4689 ca3d 8ab1 e2bd
00000370: d87c 2fba 1afa 2b3c 77a9 9cbc d5ef e53d
00000380: 4714 5fbd 3538 adbd 13b1 a93c 4bd8 c53d
00000390: 1ff6 543d 9cba ca3c 59e2 1d3d 652e 4c3c
000003a0: b479 dc3c f110 d8bc 7174 22bd 24e0 22bd
000003b0: 1046 bf3c 5544 94bc da19 05be 67e6 3d3a
000003c0: cc60 edbc de91 8dbd d7cc 203d 8bee cfba
000003d0: d958 f4bc 7a04 9dbd 302f eabd b832 04bd
000003e0: 4178 58bc 3347 d1bd 4f8f 9d3d 5926 433b
000003f0: bb1a 4dbd df75 64bb 8001 2e3c 3b75 9b3d
-0.06471046 0.0715092 -0.03639689 -0.033850785 -0.074671045 -0.031763844 -0.08414698 0.12073136
-0.0034920569 -0.010610942 -0.056676954 0.07511698 -0.07789778 -0.049621146 0.036696464 -0.06384861
0.0593476 0.116231926 -0.016056279 0.06551975 0.10384091 -0.029107114 -0.04443089 0.029367285
0.06888235 -0.05310642 -0.06738562 -0.09156517 -0.06895369 0.0810442 0.10987717 0.12839527
-0.067156285 0.029076947 0.12159384 -0.039936334 -0.01860541 -0.116592675 0.029482685 -0.09647749
-0.0642109 -0.009349854 -0.11739374 -0.06405249 0.060707048 0.10534729 -0.12495095 -0.022857869
0.10218045 -0.058997586 0.06959773 -0.0039445884 -0.041663222 0.14768444 -0.11311271 -0.02398299
0.0624552 0.06335531 0.10306134 0.06337324 0.024451498 -0.0930083 -0.055719316 -0.047645375
-0.078528285 -0.050040692 0.06915039 0.06265405 -0.012139869 0.04462091 -0.0054774107 -0.011902278
-0.0015078662 0.10030956 0.043299977 0.13589396 0.116792105 0.014267477 0.0745678 -0.12064615
-0.07849994 -0.04659317 0.05070608 -0.031984612 -0.055804014 -0.09421158 0.11891762 0.050352696
0.11720388 0.14456627 -0.092514984 0.034379546 -0.042890314 0.11628769 0.0018410446 -0.06851957
0.014272335 0.12678045 -0.06610619 -0.07425872 -0.09691122 0.099102676 0.07849776 0.028860204
0.085239515 -0.08383807 -0.04197083 -0.03820343 -0.072619125 -0.031873118 -0.03693523 -0.12817392
-0.025904125 0.026280692 -0.03623008 -0.06623875 -0.024191288 0.092854135 0.079565786 0.0535826
-0.05514551 -0.036779113 0.044068556 -0.055987805 0.13550177 -0.100323394 -0.0023374495 0.078070305
-0.071527354 0.042125642 -0.03266444 -0.051784392 0.07425754 0.064544685 0.029868213 0.027141182
0.11384984 -0.023085417 0.12928471 -0.065452054 -0.058588255 0.048860986 0.029915022 -0.06242125
-0.09650168 0.051907506 -0.078229554 -0.056719065 0.06170601 0.025624502 -0.11072682 -0.03729143
-0.15000474 0.03378938 -0.10160234 0.08392978 -0.10121875 -0.022838393 -0.08646745 -0.11186529
0.010917977 -0.12281004 -0.056043405 -0.11871299 -0.049878523 0.06338643 -0.12032825 0.056667663
-0.018118512 -0.0011690521 -0.044828866 -0.02667907 -0.07557226 -0.05734086 -0.05326636 -0.033470403
0.11645713 0.078319006 0.1285854 0.115195654 -0.123520516 -0.1380882 -0.08649376 0.033799395
-0.061951164 -0.08756579 -0.054784127 0.016597252 -0.038253024 0.013810661 -0.0050733825 0.052820917
0.021724734 -0.07592618 -0.06677833 -0.055347685 -0.046772473 -0.10679492 0.10530529 -0.08650359
-0.049323037 0.048651647 0.019367583 0.12940258 -0.04701297 0.060465734 0.017084695 -0.10266534
0.116280764 0.123202294 -0.049885508 0.13489616 0.039404206 -0.0997318 0.11865232 -0.04414905
0.097455114 -0.08891479 0.09889464 -0.11069019 -0.00066943234 0.010496641 -0.019123776 0.11227385
-0.054462697 -0.08457986 0.020714318 0.09660395 0.051992532 0.024747185 0.03854594 0.012462233
0.026913501 -0.026375266 -0.03966183 -0.03976454 0.023348838 -0.01809899 -0.12998143 0.00072441105
-0.02897682 -0.069125876 0.03925785 -0.0015863938 -0.029827522 -0.076668695 -0.114347816 -0.03227493
-0.0132122645 -0.10218658 0.076933496 0.0029777496 -0.05007432 -0.0034860296 0.010620475 0.07590719

fc1.weight f4 [32, 64]
00000000: 9deb a5bd f153 41bc 280c fb3d 8b86 a03d
00000010: c631 2abd 4ec2 633d b412 a6bd e349 8e3d
00000020: d47e 223d 20b1 2ebc 1084 ad3d d879 da3d
00000030: 44af 8b3d d1cd 7fbd 70f6 bcbd f59d 93bd
00000040: 4a8f 2abd 6384 e1bd 0b12 9cbd 4052 eb3b
00000050: de7c b7bd a8a8 a0bd 1ade 84bd 7591 eebd
00000060: 7150 0bbe 7048 36bc 998d f8bd 83e6 97bd
00000070: c136 4e3d e9d9 8c3d f0ed 883c cb27 ca3d
00000080: 9b99 083e 85fa a8bc d408 d43a 57c1 883d
00000090: e5d7 ba3d 2330 d4bd 5d08 bdbd 1ec4 bdbd
000000a0: 1593 833d 37c4 163c c32c 27bd cfe9 073d
000000b0: 244d cebd 22b9 b03d 6a1b 0cbd b7e4 d3bd
000000c0: b843 e93d 9c86 573d a74a dc3d ca6e 25bd
000000d0: 250b 573d fe5f 313d 1740 113d 64de 54bd
000000e0: 5c0d c03d e359 03bd 9002 a93d 1d07 0cbd
000000f0: b539 d63d 5642 813b 791a 173d bd86 a8bd
00000100: 2a71 e43d ac55 7fbd 0e95 7cbc d41c 27bc
00000110: 4afd e3bd d931 04bd c03d 27bc 062a 893d
00000120: 4874 acbc 10fa 49bc 9525 9ebd 48b8 bb3d
00000130: ca17 2dbc dff2 c43d f802 e7bc f0f3 95bd
00000140: b07c 92bd d5d5 703d 19b2 39bd 6af1 b9bd
00000150: befc c03d f233 b53d 6e22 ce3d 9088 b33c
00000160: d91c 693d 23f4 bbbc f099 b8bd b697 663c
00000170: f66f acbd 72bd 9dbd 630d 6c3d 8588 d53d
00000180: 03b0 223c db30 44bd a2d9 f6bd cffd 583d
00000190: 00c4 90ba f7e2 22bd bf7c d6bd 9729 82bd
000001a0: 39a1 ac3d 009b 72ba 5f56 03bd c017 a83c
000001b0: 9e50 b13d 6e2a f63d 4181 97bd 41c3 f5bc
000001c0: 9541 dabd 71e0 87bc ed67 143d 05c0 323c
000001d0: b57b 07bd a0e6 ef3b ee3c d13d 8976 513d
000001e0: ba92 2a3d eb71 f1bd d231 9a3d e071 393c
000001f0: b201 cdbb 764b 48bd 7a2e 213d 67e5 973d
00000200: 5fa3 b13c 7b83 493d 8887 38bd 1ca0 143e
00000210: b5b0 b83d 2436 00bd 3d88 02be a3e5 cabd
00000220: 06cc 473d 0531 543d 121f d6bd 0136 143d
00000230: d5fb d63c 8e2f 663d b623 9d3a 9f0a cc3d
00000240: 8d9a 97bd 9eb8 e83d a89f 6d3b 7647 503d
00000250: c186 bbbd 8887 0fbc fc96 493d 8294 1a3d
00000260: b72b 13bc ef36 b539 a70b a9bc 8d07 a1bd
00000270: c859 2e3d 1e3d 803d 7e26 9c3d 13e1 933d
00000280: 6b0b 8a3d 192f ffbd f231 103d 60b0 a53d
00000290: 337e 9cbd ab31 f3bd 4984 7abd 5b06 26bd
000002a0: dd11 bf3d 97bf c73d 1c18 023d 9787 b3bc
000002b0: 9822 c3bd f28c dcbc 6565 82bd 3569 763d
000002c0: c164 f93c 411a d43b ae33 e8bd 65cc 8cbd
000002d0: ddbc 04be ada9 c1bd fbab 3f3c ab10 0e3e
000002e0: 38a6 c1bd d29e e03c c865 f8bd 916b d73d
000002f0: 73d8 273b e9eb ae3d 1441 84bd 8125 dc3c
00000300: 068d d33d 55a5 f6bd 5159 95bd 6296 913d
00000310: d68e a5bd 5510 8a3d 0b27 4a3c 0edc c0bc
00000320: 6404 983c 26ff 9c3d 8d22 7abd 77c5 e3bd
00000330: 71bf a83c ca61 0c3e bf13 59bc da8f 6f3a
00000340: 49d6 74bd ed0f ecbc bd33 843b c48e b0bd
00000350: e48d e93d 96e9 8abd 7ae7 1ebc d7e7 0e3e
00000360: 1723 eb3d 8fc8 bebd 5048 753a 36a2 a33c
00000370: e941 c63d 2732 07bd b8be b83d e860 ebbc
00000380: 3bc1 adbd 026a 1e3d fc65 d0bd 91ff 26bd
00000390: 1ce1 c8bd 4025 02bd 8776 f63d 9401 58bd
000003a0: 5bb6 dabd d8dc a53c 9cc7 aebc f6c8 9abd
000003b0: 88c3 393d 7d4a 3f3c 11db 29bd 8b26 c4bd
000003c0: d9ea 85bd 9149 07be 171a babd 3dc6 a03c
000003d0: 471c 763b dadd c7ba aa52 bdba e80d 463d
000003e0: 3abe d03d b43f eb3b 68a4 223d 9989 d33d
000003f0: 96d0 cc3b aede 813c 443e 4dbd 1d41 da3d
-0.0810158 -0.011799798 0.12258178 0.07838162 -0.041551374 0.055605225 -0.08109036 0.069476865
0.039671734 -0.010662347 0.084724545 0.10667771 0.06820539 -0.06245214 -0.09226692 -0.07207862
-0.041640557 -0.11011579 -0.07620629 0.007181436 -0.089593634 -0.078446686 -0.06487675 -0.116488375
-0.13604905 -0.011125669 -0.121363826 -0.074170135 0.050345186 0.068775006 0.01671502 0.09870871
0.13339846 -0.02062727 0.0016176947 0.06677502 0.0912321 -0.10360744 -0.09230111 -0.09265922
0.06424538 0.009202055 -0.040814172 0.03318196 -0.10073307 0.08629061 -0.03420583 -0.10346358
0.113898695 0.052618608 0.10756426 -0.04038886 0.052500863 0.043304436 0.03546151 -0.0519699
0.09377548 -0.032068145 0.08252442 -0.03418647 0.104602255 0.0039446754 0.03689048 -0.08228824
0.11154397 -0.062337562 -0.015416397 -0.010199744 -0.111322954 -0.0322741 -0.010207593 0.066974685
-0.021051541 -0.012327686 -0.07722012 0.09166008 -0.010564754 0.096166365 -0.028199658 -0.07321918
-0.071526885 0.058797676 -0.045335863 -0.09079249 0.09423207 0.088477984 0.10065161 0.021915704
0.056912277 -0.022943562 -0.09013736 0.014074257 -0.08419792 -0.077021495 0.057629954 0.1042643
0.00992966 -0.047898155 -0.12053229 0.052976426 -0.0011044741 -0.03976723 -0.10473012 -0.06355589
0.08429188 -0.0009254664 -0.03206479 0.020519137 0.08657955 0.120198116 -0.073977 -0.03000033
-0.1065704 -0.016586514 0.036231924 0.010910039 -0.03307696 0.007321194 0.102166995 0.051138435
0.041643836 -0.11789306 0.07529034 0.011318654 -0.0062563056 -0.04890009 0.039350964 0.07416802
0.021684347 0.049197655 -0.045051128 0.14514202 0.09018079 -0.031301633 -0.12747283 -0.09907081
0.048778556 0.05180456 -0.10455145 0.036184315 0.02624313 0.056197695 0.0011988792 0.09962963
-0.07402525 0.11363338 0.0036258493 0.0508494 -0.09156562 -0.0087603405 0.049216256 0.037739284
-0.00898259 0.0003456394 -0.02063544 -0.07862768 0.04256609 0.06261657 0.07624529 0.07220664
0.06740459 -0.12460155 0.03520388 0.080902815 -0.07641258 -0.11874708 -0.061161313 -0.040533405
0.09329579 0.0975334 0.031761274 -0.02191524 -0.095280826 -0.026922677 -0.06366996 0.060158927
0.030443551 0.0064728563 -0.11337982 -0.06874923 -0.1296267 -0.09456191 0.011698718 0.13873546
-0.09455532 0.027419481 -0.12128788 0.105185635 0.0025611192 0.0854109 -0.06457725 0.026873352
0.103296325 -0.12043253 -0.072924264 0.07108761 -0.080838844 0.06741396 0.01233841 -0.02354243
0.018556781 0.07665853 -0.061068106 -0.11121648 0.020599099 0.13709179 -0.013249337 0.0009138562
-0.05977467 -0.028816188 0.004034488 -0.086209804 0.114040166 -0.06782834 -0.009698743 0.13955627
0.11481302 -0.09315597 0.00093567837 0.01997481 0.0968054 -0.033006813 0.09020752 -0.028732732
-0.084841214 0.038675316 -0.10175702 -0.04077107 -0.09808561 -0.031773806 0.12034326 -0.05273588
-0.10679313 0.020246908 -0.021335416 -0.075578615 0.04535249 0.011675474 -0.041468684 -0.09577664
-0.06538934 -0.13211657 -0.090870075 0.019625777 0.0037553476 -0.0015248612 -0.0014444191 0.048353106
0.10192533 0.007179225 0.03970757 0.10328979 0.0062504513 0.015853252 -0.05010821 0.106569506

fc1.bias f4 [32]
00000000: 53f9 733b a5b7 15bd 64cb 473b 2476 c23d
00000010: 8b86 113d 5f1f d33d bb62 b4bd 36d3 febd
00000020: 053c a43d 8dd1 9a3d 7538 17bd 5b7a 033e
00000030: 2d84 30bd 225c 173b af26 f1bb 2c12 443c
00000040: b313 d5bd 2614 f23c 1974 d43d 5bf8 a7bd
00000050: 5873 f2bd e5c0 7ebd f1ac 52bd 19ac 143e
00000060: 6da4 b4bd dc42 b33d 9a93 da3d 493b f83d
00000070: 4d17 6cbd 82c2 d03d b814 d23d 52bd ba3c
0.0037227466 -0.03655209 0.003048622 0.0949519 0.0355287 0.10308718 -0.08807894 -0.12442629
0.0801926 0.075595 -0.036919076 0.12839644 -0.043094803 0.0023095687 -0.007359348 0.011967223
-0.10404148 0.029550623 0.10373706 -0.08201667 -0.11838406 -0.062195677 -0.05143446 0.14518775
-0.08820424 0.08752987 0.10672684 0.12120683 -0.05763941 0.101933494 0.10257858 0.022795353

fc2.weight f4 [2, 32]
00000000: 1a49 173e 6342 723d 99a0 833d c5b9 94bc
00000010: 5732 0cbe 36d1 b4bd a31d 0dbe 6fc4 bf3c
00000020: a040 e53d a1b8 abbd f47d 673d df47 38bd
00000030: a3ca f03c e6e2 10be c2e0 423e b687 003e
00000040: 6b50 b8bd a176 0f3d 664b bd3d 8448 2c3e
00000050: 1df4 80bc bd52 02be 78d1 8abd f2be 253e
00000060: 6cb8 88bd fa72 383e 213c 993d 6e9c b83d
00000070: 1af6 253e 9cc0 7bbc 41fb 62bd 225e 32bc
00000080: 2f9b 1a3b bb7f b43d a893 f7bd d062 123e
00000090: 9427 d93d 3a3f 183e a665 bc3c d73e fbbd
000000a0: 5864 9abd 9f13 a1bc a8e0 87bd 1eba 1bbe
000000b0: c31b 22bd ddfc 043d cbb9 42be ca20 a93d
000000c0: ec38 203e 05c2 043c 336c 02be 4aa0 b13c
000000d0: dc0f f63d 7946 1c3e 054e 103e 0fd2 d63c
000000e0: ef81 82bd 06cf cebd 92c5 33be e6aa fb3c
000000f0: 860d 563d db4e 23be db52 3abd 89c5 913d
0.1477398 0.059145343 0.06427116 -0.018154988 -0.13691078 -0.08828966 -0.13780837 0.023409097
0.11193967 -0.083848245 0.056516603 -0.044990417 0.0293935 -0.14149055 0.19031051 0.1255177
-0.089997135 0.035025243 0.09242897 0.16824538 -0.015741402 -0.12726875 -0.06778234 0.16186121
-0.06675801 0.1801261 0.07482172 0.090142116 0.16207162 -0.015365746 -0.055415396 -0.010886701
0.0023591032 0.08813425 -0.1208871 0.14295506 0.10603252 0.14867869 0.022997689 -0.12267845
-0.0753867 -0.019662676 -0.06634647 -0.15207717 -0.039577257 0.03246771 -0.19016187 0.08258207
0.15646714 0.0081028985 -0.12736587 0.021682877 0.12014744 0.15261258 0.14092262 0.02622321
-0.06372439 -0.1009808 -0.17555836 0.03072114 0.05225899 -0.1594805 -0.045489173 0.07117755

fc2.bias f4 [2]
00000000: 4f08 10bd 0a4c d7bd
-0.035164174 -0.1051255
