models/tcn-lstm.onnx (onnx, 714257 bytes, 25 tensors)

tcn.0.conv1.weight f4 [64, 1, 3]
0.03288249 -0.5531131 0.27670115 -0.3330994 0.26335415 -0.26873878 0.47257414 0.025452064
-0.40379468 -0.022633214 0.50410223 -0.1651859 -0.18154037 0.41422808 -0.052661154 0.26711935
-0.082550086 -0.5234623 -0.22711174 0.040099952 -0.05581859 0.30551758 0.38520902 -0.015881719
0.25909135 0.27226144 0.43443435 -0.5353278 -0.08122033 -0.110864766 -0.35701063 -0.5535416
0.08329321 0.36583903 0.56048256 -0.34664816 -0.39107636 -0.2600494 0.061583564 -0.24221921
0.138838 -0.16149762 0.053779352 0.38828328 0.09501844 -0.41034216 -0.2529597 -0.19925939
-0.40229112 0.07822942 0.08053542 0.20021047 0.16840437 -0.042576037 0.3058442 -0.04736231
-0.48831874 0.12517962 -0.42199203 0.13462651 0.0010313416 -0.11104476 0.518861 0.108127266
0.02978766 -0.37149417 -0.33051866 0.4654605 -0.19643603 0.26174688 0.061232682 -0.5091692
0.1345429 0.14687614 -0.16743757 -0.5245243 -0.022212815 -0.08962947 -0.23412149 -0.19634768
0.053111743 0.20036191 -0.3713172 0.061065767 -0.46252793 -0.552849 0.5023641 -0.09020017
0.11697818 -0.33293188 -0.35245395 0.08790599 -0.3206256 -0.23562323 0.06941002 0.2842055
-0.3705286 0.47387257 0.118407294 -0.11652001 0.4017205 0.1300666 0.46440765 0.5337703
0.47686288 -0.47058937 -0.38394064 -0.41581148 -0.44163555 -0.14671996 -0.50668085 0.2367033
0.06426916 0.3754017 0.28254637 -0.21309845 0.37124532 -0.24302149 -0.2919797 -0.48226696
0.5611807 -0.50131 0.2210324 0.19174266 -0.23268062 -0.49899456 0.14307395 0.27383414
0.28565484 0.21659751 0.18568446 0.17420751 0.38235494 -0.3961071 -0.24586667 -0.46854213
0.2421357 0.39304453 0.037341144 0.04462729 -0.08547289 0.09865675 -0.38306296 -0.4985117
0.37105793 0.46953812 0.5319216 0.374104 0.15739246 -0.16229455 0.29118294 -0.2440994
-0.48902228 0.45623147 0.5600545 0.023424398 0.33854505 0.55792636 -0.14757515 0.22735284
0.43087646 -0.18086615 0.42115542 0.4154288 0.07207783 -0.030978931 0.5274828 0.21770515
-0.41871557 -0.22285849 0.1052101 -0.4896588 -0.5304569 -0.24647531 0.1287531 -0.2412879
-0.4136552 0.1982678 0.2512652 -0.31735593 -0.0035568643 -0.10087173 0.56222236 0.16719341
-0.38895342 -0.2639788 -0.17988126 0.37327448 -0.08691472 0.42557532 -0.37814242 -0.40368873
00000000: caaf 063d d298 0dbf c6ab 8d3e 018c aabe
00000010: 5bd6 863e 2198 89be 3df5 f13e d980 d03c
00000020: 2dbe cebe 4a69 b9bc d80c 013f 7e26 29be
00000030: b8e5 39be b415 d43e 39b3 57bd dec3 883e
00000040: 0510 a9bd a001 06bf fb8f 68be d93f 243d
00000050: 09a2 64bd cd6c 9c3e 1e3a c53e 611a 82bc
00000060: 9fa7 843e da65 8b3e 2e6e de3e 3e0b 09bf
00000070: d856 a6bd 110d e3bd 19ca b6be e7b4 0dbf
00000080: a195 aa3d 414f bb3e c97b 0f3f de7b b1be
00000090: 293b c8be 3225 85be 0c3f 7c3d 5008 78be
000000a0: 8c2b 0e3e a25f 25be bd47 5c3d 11cd c63e
000000b0: 0799 c23d 5e18 d2be ef83 81be a70a 4cbe
000000c0: 1af9 cdbe bf36 a03d c1ef a43d f903 4d3e
000000d0: 3272 2c3e 3664 2ebd 9c97 9c3e fbfe 41bd
000000e0: ea04 fabe 162f 003e 570f d8be 88db 093e
000000f0: 152e 873a 6f6b e3bd 13d4 043f d471 dd3d
00000100: 4005 f43c 7c34 bebe be39 a9be d750 ee3e
00000110: 8726 49be b003 863e 1fcf 7a3d ea58 02bf
00000120: 9dc5 093e b366 163e c174 2bbe 3947 06bf
00000130: a6f7 b5bc a88f b7bd 8bbd 6fbe 5e0f 49be
00000140: b38b 593d ac2b 4d3e 4a1d bebe 1920 7a3d
00000150: 76d0 ecbe 8387 0dbf ef9a 003f deba b8bd
00000160: 4292 ef3d 0c76 aabe d874 b4be 0e08 b43d
00000170: 0a29 a4be 3747 71be d726 8e3d 6283 913e
00000180: edb5 bdbe 6d9f f23e 867f f23d 0ba2 eebd
00000190: 4fae cd3e 2e30 053e d7c6 ed3e 2ca5 083f
000001a0: 5f27 f43e 17f1 f0be de93 c4be 3ee5 d4be
000001b0: 0e1e e2be c23d 16be d6b5 01bf 5a62 723e
000001c0: 8d9f 833d a734 c03e eba9 903e 7b36 5abe
000001d0: de13 be3e a0da 78be 5d7e 95be b2eb f6be
000001e0: 8aa9 0f3f da55 00bf 5156 623e 3058 443e
000001f0: d443 6ebe 377c ffbe fa81 123e fd33 8c3e
00000200: 5a41 923e bdcb 5d3e 1124 3e3e 7463 323e
00000210: 07c4 c33e 8dce cabe 79c4 7bbe c1e4 efbe
00000220: 6cf2 773e 223d c93e 07f3 183d 1bcb 363d
00000230: 690c afbd 8d0c ca3d d420 c4be ed3c ffbe
00000240: 4efb bd3e 4d67 f03e 042c 083f 8f8a bf3e
00000250: 7d2b 213e 8b30 26be ee15 953e 31f5 79be
00000260: 2161 fabe 2c97 e93e bb5f 0f3f 86e4 bf3c
00000270: c755 ad3e 43d4 0e3f f11d 17be 2fcf 683e
00000280: d79b dc3e fa34 39be afa1 d73e 15b3 d43e
00000290: 8b9d 933d 87c7 fdbc 1d09 073f 19ee 5e3e
000002a0: e361 d6be 0435 64be 6578 d73d 8fb4 fabe
000002b0: 06cc 07bf 0664 7cbe dad7 033e 2d14 77be
000002c0: 9dca d3be b706 4b3e d5a5 803e 7a7c a2be
000002d0: 481a 69bb d695 cebd ceed 0f3f c034 2b3e
000002e0: e724 c7be 3b28 87be cb32 38be d51d bf3e
000002f0: 5800 b2bd 02e5 d93e e29b c1be 4ab0 cebe

tcn.0.conv1.bias f4 [64]
-0.4391335 -0.2428372 -0.30374965 0.10448591 -0.5455673 -0.1287909 0.47699112 -0.2477398
-0.49858618 -0.27560958 0.22042102 0.5308028 -0.40236554 -0.32657912 0.57049733 -0.10632356
-0.5417819 -0.009344218 0.36330125 0.1634343 -0.31851226 0.1060796 0.53203905 -0.35892272
-0.03318283 -0.5089912 0.26797822 -0.095984496 0.25135678 -0.56485057 -0.2826823 0.03991845
-0.031064829 0.20931216 0.40366524 -0.057960108 0.051918652 -0.43965018 -0.28224084 0.37546742
0.43268162 -0.49139386 0.23684686 -0.24740063 -0.2658493 0.1993132 -0.30928755 0.17445353
-0.35635346 0.042839948 -0.5019631 -0.20149502 0.58039147 0.39886996 -0.12542996 -0.06540403
-0.39877445 0.028863197 -0.10656973 0.45742303 -0.03809081 0.3959519 -0.18130045 0.21998498
00000000: 1bd6 e0be 51aa 78be 1385 9bbe b5fc d53d
00000010: 4caa 0bbf c3e1 03be 2e38 f43e 81af 7dbe
00000020: b046 ffbe b31c 8dbe 0cb6 613e b1e2 073f
00000030: db02 cebe 6135 a7be 1d0c 123f 2bc0 d9bd
00000040: 38b2 0abf 7e18 19bc 9f02 ba3e 525b 273e
00000050: 0a14 a3be 4340 d93d b633 083f b8c4 b7be
00000060: b8ea 07bd 3f4d 02bf 7134 893e 8593 c4bd
00000070: d6b1 803e 0c9a 10bf bcbb 90be 8781 233d
00000080: ab7b febc ed55 563e 36ad ce3e 9467 6dbd
00000090: a7a8 543d d419 e1be df81 90be 443d c03e
000000a0: 7288 dd3e fa97 fbbe fc87 723e 9756 7dbe
000000b0: 661d 88be c218 4c3e f05a 9ebe f2a3 323e
000000c0: f673 b6be f178 2f3d a780 00bf b654 4ebe
000000d0: 8994 143f af38 cc3e b670 00be 8cf2 85bd
000000e0: 2a2c ccbe 8372 ec3c 3b41 dabd 5a33 ea3e
000000f0: 1c05 1cbd 35ba ca3e d3a6 39be be43 613e

tcn.0.conv2.weight f4 [64, 64, 3]
-0.015164377 0.009516625 0.0036268465 0.030360406 -0.06586929 0.057136465 0.026217952 -0.04666985
-0.05148177 -0.026135843 0.0362815 0.028246336 0.07059134 -0.02851417 -0.06438712 -0.0062237107
-0.070789956 -0.06974564 0.06352637 0.015937708 -0.06124088 0.057447538 -0.044514664 0.06468223
-0.056495853 -0.015103673 -0.013119287 0.0561288 -0.00021279989 -0.030432835 0.068921044 0.0348644
-0.006267071 -0.06315799 -0.0025376312 -0.064117394 0.006410847 0.068022616 -0.0068856226 0.010712657
-0.03506781 -0.0611299 0.03808033 -0.046864074 0.032858986 0.0103761945 0.03592537 0.04436614
-0.038120214 0.047651492 -0.057398792 -0.04977031 -0.07163536 -0.021126818 -0.02625794 0.027777169
-0.009740006 -0.05136374 0.07118656 -0.03585966 -0.0014249204 -0.029083727 0.0009486307 0.036060948
-9.103034e-05 -0.025427835 0.0033725363 0.0026678748 -0.044218216 -0.040513374 -0.056269977 0.03702724
-0.012081226 0.05850272 -0.02594253 -0.012831975 0.017770516 -0.06698401 -0.028511718 -0.06333185
-0.04033854 -0.026968924 -0.047544442 0.018617457 0.031182578 -0.010523318 -0.026605655 0.014698643
0.06302792 0.037340097 -0.04511601 0.07162046 -0.051797282 -0.029868742 -0.040388566 -0.02157513
-0.06878965 0.007823026 -0.04422189 0.06900456 0.030415801 -0.0005634659 -0.046647258 -0.035649903
-0.06313828 0.034615345 -0.011454621 -0.02429674 0.068418495 -0.06271487 0.032418203 0.0015801736
-0.0667989 -0.013275151 -0.03816103 0.06583302 -0.005346822 0.0361585 -0.06478158 0.025480779
-0.038086914 -0.04989175 0.07007173 -0.038054116 0.07148632 -0.06195253 -0.06607025 -0.050104864
0.03652465 0.054298755 0.07175309 0.0023312578 -0.06056978 0.0020710803 -0.058722377 -0.025535814
-0.017199952 0.059827775 0.021986946 -0.0029814956 -0.038148142 -0.037403088 -0.033510033 0.023227777
0.018026657 -0.026846493 -0.057191458 -0.0009851168 0.06106247 -0.054624274 -0.00045134051 0.043509014
-0.047874797 -0.0046046507 0.013618797 -0.038349647 0.0028721145 0.01474412 -0.021710983 0.014810743
0.03992087 0.035103936 0.023757389 0.014611691 0.018833423 0.04551508 0.049734537 -0.042289425
-0.016357355 0.017213322 0.002090119 0.05535747 0.03534048 -0.068184756 -0.038595024 0.066203535
0.03982929 -0.012498481 0.07115242 0.033345513 -0.011582052 -0.012105901 -0.06778117 -0.06651195
0.019212702 0.02976958 -0.041926257 -0.02751164 -0.0012987289 -0.04645666 0.024307854 -0.03317647
0.050614428 -0.015169875 -0.02555777 0.011252318 -0.029682888 0.011627821 0.03335786 0.06479409
-0.029661972 -0.0047476096 -0.036750056 -0.056758173 -0.025974361 0.03588928 -0.009442112 -0.028477933
0.008018706 0.015835676 0.016336286 -0.046673447 0.034401357 -0.053936757 -0.03482653 0.07043704
-0.037067357 -0.049440008 -0.014680525 0.04742577 0.0046475893 0.04329573 -0.041435566 -0.033473562
0.05388696 -0.038392153 0.04394024 0.03574823 -0.04887427 0.013930878 -0.036982626 -0.015007102
-0.029837452 0.056295767 -0.06541444 0.05073508 -0.006285301 0.0078401035 0.060343597 -0.04770219
0.03887124 0.06489314 0.027797172 -0.019873306 -0.015229151 -0.03818647 0.07148582 -0.030245045
0.060784146 -0.02481139 -0.045096293 -0.0057022283 0.030410752 -0.060215358 -0.058805037 0.00862985
00000000: 0274 78bc 9eeb 1b3c 63b0 6d3b 63b6 f83c
00000010: 7ae6 86bd ed07 6a3d 08c7 d63c e228 3fbd
00000020: 8cde 52bd d61a d6bc e99b 143d dc64 e73c
00000030: 3192 903d 8c96 e9bc 65dd 83bd 45f0 cbbb
00000040: 53fa 90bd cdd6 8ebd 1d1a 823d cc8f 823c
00000050: b8d7 7abd 1c4e 6b3d 0255 36bd 1e78 843d
00000060: 3268 67bd 6575 77bc 47f2 56bc 50e7 653d
00000070: 0923 5fb9 484e f9bc 7a26 8d3d f9cd 0e3d
00000080: 005c cdbb fa58 81bd 634e 26bb fb4f 83bd
00000090: 1512 d23b 714f 8b3d caa0 e1bb 2484 2f3c
000000a0: 44a3 0fbd 5963 7abd 1ffa 1b3d 8bf4 3fbd
000000b0: 2597 063d ea00 2a3c 7b26 133d 45b9 353d
000000c0: f123 1cbd 362e 433d ff1a 6bbd f4db 4bbd
000000d0: 8fb5 92bd 2612 adbc e41a d7bc f28c e33c
000000e0: 8c94 1fbc c962 52bd 42ca 913d 94e1 12bd
000000f0: 65c4 baba ff40 eebc 87ad 783a a5b4 133d
00000100: 8be7 beb8 094e d0bc c505 5d3b 83d7 2e3b
00000110: 291e 35bd 5af1 25bd 597b 66bd e0a9 173d
00000120: 56f0 45bc 8ca0 6f3d 6e85 d4bc 343d 52bc
00000130: 7993 913c ea2e 89bd 6891 e9bc 21b4 81bd
00000140: 063a 25bd efed dcbc f6bd 42bd a383 983c
00000150: 9b72 ff3c ff69 2cbc 1af4 d9bc 94d2 703c
00000160: c814 813d eef1 183d 91cb 38bd bfad 923d
00000170: 6329 54bd 4baf f4bc 7b6e 25bd 54be b0bc
00000180: 97e1 8cbd 262c 003c 0322 35bd 4352 8d3d
00000190: 8f2a f93c 8eb5 13ba 3211 3fbd a205 12bd
000001a0: a44e 81bd d2c8 0d3d 2aac 3bbc f509 c7bc
000001b0: ff1e 8c3d a770 80bd f3c8 043d d41d cf3a
000001c0: ddcd 88bd 0580 59bc bd4e 1cbd 76d3 863d
000001d0: 6534 afbb ef1a 143d 34ac 84bd 11bd d03c
000001e0: 0601 1cbd 4b5b 4cbd c481 8f3d a2de 1bbd
000001f0: 6b67 923d f0c1 7dbd d74f 87bd c23a 4dbd
00000200: df9a 153d 5f68 5e3d 49f3 923d 04c8 183b
00000210: 0518 78bd f6ba 073b e086 70bd 7c30 d1bc
00000220: eae6 8cbc f80d 753d f81d b43c 3265 43bb
00000230: 3a41 1cbd fb33 19bd d141 09bd 2e48 be3c
00000240: a4ac 933c 2ded dbbc 9741 6abd 091f 81ba
00000250: a41c 7a3d b4bd 5fbd e6a1 ecb9 8236 323d
00000260: 5d18 44bd 9ce2 96bb 6021 5f3c 8514 1dbd
00000270: 163a 3c3b 5291 713c 3bdb b1bc c2a8 723c
00000280: 1184 233d 25c9 0f3d db9e c23c e065 6f3c
00000290: 8d48 9a3c 056e 3a3d 71b6 4b3d ad37 2dbd
000002a0: dcff 85bc f402 8d3c 61fa 083b 84be 623d
000002b0: 2ec1 103d 73a4 8bbd d115 1ebd b895 873d
000002c0: 0a24 233d 6ec6 4cbc 5cb8 913d 4e95 083d
000002d0: a6c2 3dbc d457 46bc dbd0 8abd 6b37 88bd
000002e0: f563 9d3c 56df f33c deba 2bbd 1760 e1bc
000002f0: 1c3a aaba 5749 3ebd 4421 c73c 0de4 07bd
00000300: 1351 4f3d 118b 78bc 875e d1bc a45b 383c
00000310: 8729 f3bc 9e82 3e3c 40a2 083d c4b2 843d
00000320: aafd f2bc d691 9bbb 3a87 16bd 427b 68bd
00000330: 2fc8 d4bc a300 133d 17b3 1abc 8e4a e9bc
00000340: e460 033c d2b9 813c add3 853c a82c 3fbd
00000350: 70e8 0c3d caec 5cbd 43a6 0ebd 4b41 903d
00000360: f1d3 17bd 9b81 4abd 9686 70bc 8641 423d
00000370: ce4a 983b dd56 313d 57b8 29bd 931b 09bd
00000380: 93b8 5c3d 1741 1dbd aefa 333d bc6c 123d
00000390: 6330 48bd 563e 643c 187b 17bd 59e0 75bc
000003a0: ac6d f4bc 6496 663d 02f8 85bd 96cf 4f3d
000003b0: edf4 cdbb c773 003c d92a 773d 5f63 43bd
000003c0: 7337 1f3d b2e6 843d e5b6 e33c 58cd a2bc
000003d0: b083 79bc 6a69 1cbd 2867 923d 75c4 f7bc
000003e0: ccf8 783d 4241 cbbc e4b6 38bd c2d9 babb
000003f0: f81f f93c 61a4 76bd 8ddd 70bd 3764 0d3c

tcn.0.conv2.bias f4 [64]
-0.0056242836 -0.0027802926 -0.022739103 0.032622855 0.05198727 -0.052301172 -0.030108126 -0.028523441
2.7851002e-06 -0.060354326 -0.010459591 -0.00806822 0.02592991 0.02914554 0.013142289 -0.039878692
-0.048260543 0.0059403065 0.019204302 0.07543004 -0.014472681 -0.045652673 0.020757666 -0.029382693
-0.023643097 0.014086564 0.037283737 0.046115678 -0.022161437 -0.06758555 0.049425047 -0.052673124
0.06806495 -0.02605639 -0.0006286205 -0.044003934 0.031248575 0.051266592 -0.06455229 0.000445613
0.04817872 -0.03059226 0.02800481 -0.011064668 0.033616535 -0.020365331 -0.029657103 -0.04837941
-0.06809436 -0.06608272 -0.033609077 0.0610617 0.0851095 -0.07301968 0.03352578 -0.043340046
0.06406768 -0.05358455 -0.033853125 0.04387667 0.05657642 -0.024710298 0.010659418 -0.00953949
00000000: e94b b8bb 9235 36bb 5b47 babc 8b9f 053d
00000010: 9bf0 543d c139 56bd 51a5 f6bc fea9 e9bc
00000020: a8e7 3a36 1936 77bd b45e 2bbc 9130 04bc
00000030: f66a d43c a1c2 ee3c c152 573c d757 23bd
00000040: d9ac 45bd e7a6 c23b 5752 9d3c 117b 9a3d
00000050: d31e 6dbc 4cfe 3abd fb0b aa3c f9b3 f0bc
00000060: 2baf c1bc 55cb 663c d5b6 183d cbe3 3c3d
00000070: e78b b5bc 4b6a 8abd eb71 4a3d c6bf 57bd
00000080: a365 8b3d 3674 d5bc 02ca 24ba 783d 34bd
00000090: 03fd ff3c ebfc 513d fe33 84bd 2aa1 e939
000000a0: 0d57 453d 9f9c fabc 586a e53c 9548 35bc
000000b0: 7eb1 093d 32d5 a6bc 74f3 f2bc 7d29 46bd
000000c0: 0e75 8bbd 6156 87bd aca9 09bd d51b 7a3d
000000d0: e44d ae3d 588b 95bd 5452 093d 5585 31bd
000000e0: ea35 833d 797b 5bbd 93a9 0abd 06b8 333d
000000f0: adbc 673d 406d cabc d7a4 2e3c 854b 1cbc

tcn.0.downsample.weight f4 [64, 1, 1]
0.9516542 0.27809048 -0.33546263 -0.025253057 0.9180878 0.7349292 -0.18870175 -0.58026034
-0.35391033 -0.48059386 0.9469208 -0.7560428 0.8817219 0.51462257 -0.668947 -0.7056924
0.09482938 0.47890353 -0.16792546 0.40367046 -0.43491733 0.014302102 -0.85978 0.04013442
-0.24052146 0.4685214 -0.52555764 0.7966727 -0.87598264 -0.26900136 0.5593181 0.9133697
0.3087993 0.982116 0.1307443 -0.1153602 0.1527863 -0.4899403 -0.7494959 0.9018898
0.33718982 -0.7045194 0.6712186 -0.19115579 -0.3000394 -0.5298206 -0.32460612 0.86126155
0.2944517 -0.68032086 0.9833453 -0.836692 0.13466547 0.7140341 -0.7862735 0.07789798
0.11157745 -0.44730055 -0.37547302 0.56899184 0.9093679 -0.46199965 0.8830936 -0.74610424
00000000: 9c9f 733f e061 8e3e c2c1 abbe 80df cebc
00000010: cd07 6b3f 5224 3c3f 083b 41be f18b 14bf
00000020: bc33 b5be 6610 f6be 6769 723f 058c 41bf
00000030: 87b8 613f 4ebe 033f 1c40 2bbf 42a8 34bf
00000040: e835 c23d d832 f53e a7f4 2bbe e5ad ce3e
00000050: 7cad debe 5d53 6a3c 8b1a 5cbf fd63 243d
00000060: 424b 76be 09e2 ef3e f28a 06bf bef2 4b3f
00000070: 6640 60bf 8cba 89be 792f 0f3f 99d2 693f
00000080: f11a 9e3e f46b 7b3f d5e1 053e f841 ecbd
00000090: 0374 1c3e 74d9 fabe f7de 3fbf 40e2 663f
000000a0: 25a4 ac3e 625b 34bf fbd4 2b3f 58be 43be
000000b0: c49e 99be 53a2 07bf c632 a6be a37b 5c3f
000000c0: 60c2 963e 8229 2ebf 85bc 7b3f 7231 56bf
000000d0: bfe5 093e f0ca 363f 3849 49bf fa88 9f3d
000000e0: b882 e43d 9404 e5be 003e c0be 73a9 113f
000000f0: 56cc 683f 388b ecbe 6c12 623f b000 3fbf

tcn.0.downsample.bias f4 [64]
-0.8332325 -0.76885164 0.31779394 -0.9754894 0.36001018 0.5965709 -0.613171 -0.2584724
0.55881065 0.43272075 0.73460203 0.75754267 0.68146074 -0.92002964 -0.42148256 0.51155907
-0.2559448 -0.91235304 0.98653734 -0.19335146 -0.60663855 0.022077043 0.5281487 0.6249673
0.8556278 -0.10801931 -0.76619184 0.46355256 -0.6720195 -0.88237894 0.9064034 -0.09249714
0.27206486 0.39262196 0.44292375 0.0748618 -0.097449616 0.7476362 -0.4365492 0.3990465
0.83341336 -0.87417006 0.19034518 -0.17766236 -0.2958992 -0.35556528 0.28172755 -0.14350772
-0.8607261 -0.73403573 0.80968606 0.78561616 0.2260718 -0.40701807 -0.32782146 -0.16416763
0.055219427 -0.8496351 0.98001456 0.13817078 -0.07566707 0.012682187 -0.13698469 0.82579064
00000000: ba4e 55bf 76d3 44bf e3b5 a23e acb9 79bf
00000010: 4153 b83e dfb8 183f c6f8 1cbf 7f56 84be
00000020: 370e 0f3f 938d dd3e e10e 3c3f 51ee 413f
00000030: 3674 2e3f 1087 6bbf 90cc d7be 89f5 023f
00000040: 320b 83be f88f 69bf b68d 7c3f edfd 45be
00000050: aa4c 1bbf eada b43c c134 073f dbfd 1f3f
00000060: 6c0a 5b3f 3a39 ddbd 2625 44bf c356 ed3e
00000070: 7809 2cbf 96e3 61bf 0e0a 683f 246f bdbd
00000080: 164c 8b3e bf05 c93e e7c6 e23e 2551 993d
00000090: aa93 c7bd 1665 3f3f 6083 dfbe d34f cc3e
000000a0: 945a 553f 9cc9 5fbf d9e9 423e 1fed 35be
000000b0: 1a80 97be a70c b6be 983e 903e b0f3 12be
000000c0: 8c58 5cbf c4e9 3bbf 9647 4f3f 241e 493f
000000d0: 5e7f 673e ac64 d0be 37d8 a7be 8f1b 28be
000000e0: c42d 623d b081 59bf 3ce2 7a3f a47c 0d3e
000000f0: 56f7 9abd f3c8 4f3c b745 0cbe 0467 533f

tcn.1.conv1.weight f4 [128, 64, 3]
0.062276576 -0.023880947 -0.005824557 -0.0028351122 -0.013978195 0.066966884 0.06555003 -0.013048761
0.046418358 -0.0023371251 0.02337828 -0.0717043 -0.0032893196 0.01688248 -0.00048163702 0.025755083
0.062202383 -0.062150367 0.06304802 0.036048293 0.026763584 0.071878985 -0.06356293 0.06128703
-0.05409431 0.03436798 -0.077908896 -0.04087699 0.011324211 -0.030374654 -0.037562393 -0.017416615
0.045810312 -0.023583407 -0.0274278 0.053678498 0.0027767804 -0.050892323 -0.04681003 0.008558728
0.071836725 0.011881934 -0.023953868 -0.016749084 0.038365964 -0.059667412 0.018181462 -0.025859851
0.012941416 -0.05676739 -0.0374119 -0.017258849 -0.060188774 -0.053625587 0.037996147 0.050620865
-0.06216632 -0.017655747 0.056825686 -0.02455387 0.044384208 0.05822468 0.006484697 -0.0024759874
0.028365994 -0.06525571 0.027899154 -0.06095275 -0.021287417 0.008032344 -0.0733834 -0.015894359
-0.0651986 -0.045369096 0.020542834 -0.06206294 -0.07461076 -0.038186036 0.055829518 0.0014312008
-0.032074798 -0.04340579 0.028264245 0.05213165 -0.06750363 -0.0625001 -0.057916205 0.05103609
-0.07015255 0.06956626 -0.0070606433 0.063302726 -0.03541784 -0.05657184 -0.059438404 -0.025103234
0.0049539963 0.011310489 0.042683765 0.041497413 0.06609693 0.01780814 -0.06447797 0.03733461
-0.041325122 0.020953676 -0.0368841 0.004921815 -0.019237123 0.015580753 -0.02037057 0.038991556
-0.04246106 -0.072985195 0.047691032 0.021033894 -0.022777572 -0.04598765 -0.00884468 -0.056392085
-0.04719949 0.029007958 0.037641533 0.05036798 0.05444856 -0.025139447 -0.03533387 0.0583857
0.032514747 0.061730478 -0.024823245 -0.004561868 0.02637947 0.026214907 -0.00800205 -0.008621936
-0.018899504 0.028313646 0.012540293 -0.06611135 -0.020241933 0.03181287 -0.040018104 -0.0086034965
-0.014190608 0.06894658 -0.019949367 -0.04315222 -0.0047736946 -0.059137765 -0.024444312 0.024322417
0.009075427 -0.03421274 -0.030719334 -0.031087581 -0.03784571 -0.032962285 0.026800336 0.05309034
0.06701953 -0.047292434 0.07053125 0.0012411047 0.03833608 0.0012208528 0.0019916126 0.032796856
-0.0014966654 -0.07432561 0.01908538 -0.04852591 -0.038618006 -0.015898006 0.04193238 -0.0152218705
-0.048302658 0.021290435 0.013501964 -0.025760593 0.054883853 0.0017164494 -0.0017779621 -0.064336844
0.05979651 0.05111854 0.0091158105 -0.015202019 -0.04205726 0.049363926 -0.04725443 -0.0024701902
0.049193285 0.052390568 -0.012810811 0.061903458 0.07126532 0.04020359 -0.01096461 -0.012152641
-0.00037096092 -0.048882995 0.043540567 -0.05525794 -0.04259316 -0.006448469 -0.057824254 -0.02136566
-0.041418042 0.04507017 0.021948664 0.016853828 0.0018220351 -0.033717997 0.06892315 0.02701644
0.040130626 -0.06285099 0.058140688 -0.015589246 -0.020977596 0.055226676 0.052256063 0.014060098
-0.062462304 -0.05680014 0.06235578 0.046194326 -0.025157962 -0.034507453 -0.003921153 0.036269818
0.033767346 0.055668097 0.06313897 -0.013887655 1.1184146e-05 0.05319081 -0.03789254 0.012403493
0.022165015 0.05106768 0.011913034 -0.065403774 -0.0655033 0.011603784 0.051671144 0.012534245
-0.07146335 -0.044124786 -0.025089137 0.04044735 -0.016785933 0.056258854 0.07109121 0.044523776
00000000: b915 7f3d faa1 c3bc eddb bebb 4acd 39bb
00000010: cd04 65bc ef25 893d 183f 863d 78ca 55bc
00000020: 2d21 3e3d 742a 19bb cf83 bf3c b4d9 92bd
00000030: a091 57bb 204d 8a3c 3a84 fcb9 53fc d23c
00000040: edc7 7e3d 6291 7ebd 521f 813d 60a7 133d
00000050: 4e3f db3c 4a35 933d 482d 82bd 1c08 7b3d
00000060: ff91 5dbd 70c5 0c3d b38e 9fbd a16e 27bd
00000070: 2f89 393c 44d4 f8bc 06db 19bd 4aad 8ebc
00000080: 98a3 3b3d fd31 c1bc 44b0 e0bc fcdd 5b3d
00000090: a5fa 353b 7874 50bd e0bb 3fbd e839 0c3c
000000a0: 221f 933d 71ac 423c e73a c4bc 6035 89bc
000000b0: a125 1d3d d165 74bd 4af1 943c 0ad8 d3bc
000000c0: 3c08 543c ec84 68bd 383d 19bd 6e62 8dbc
000000d0: 8188 76bd 81a6 5bbd d9a1 1b3d d357 4f3d
000000e0: 1ca2 7ebd c9a2 90bc 0dc2 683d 3325 c9bc
000000f0: 37cc 353d 017d 6e3d 957d d43b 2d44 22bb
00000100: cd5f e83c c9a4 85bd c48c e43c 97a9 79bd
00000110: f362 aebc 189a 033c 094a 96bd e334 82bc
00000120: d886 85bd f2d4 39bd 7249 a83c b635 7ebd
00000130: 87cd 98bd f668 1cbd 7ead 643d 2197 bb3a
00000140: dd60 03bd 45ca 31bd 6b8a e73c ff87 553d
00000150: 583f 8abd 0d00 80bd 8b39 6dbd 380b 513d
00000160: 24ac 8fbd c178 8e3d f85c e7bb dca4 813d
00000170: 4c12 11bd e0b7 67bd af75 73bd 4ca5 cdbc
00000180: 2255 a23b a14f 393c 2cd5 2e3d 31f9 293d
00000190: d45d 873d 60e2 913c 070d 84bd 2dec 183d
000001a0: 8844 29bd 0ba7 ab3c c813 17bd 2d47 a13b
000001b0: 2c97 9dbc 6a46 7f3c 2ee0 a6bc 9cb5 1f3d
000001c0: a6eb 2dbd 4379 95bd ac57 433d 464f ac3c
000001d0: 0898 babc 8c5d 3cbd 47e9 10bc 63fb 66bd
000001e0: 4154 41bd 19a2 ed3c 022e 1a3d a84e 4e3d
000001f0: 7405 5f3d 3ef1 cdbc 40ba 10bd d825 6f3d
00000200: 2f2e 053d 19d9 7c3d 1e5a cbbc b97b 95bb
00000210: c219 d83c a5c0 d63c 081b 03bc 0543 0dbc
00000220: 22d3 9abc 05f2 e73c cd75 4d3c 6365 87bd
00000230: 69d2 a5bc 364e 023d 06ea 23bd aef5 0cbc
00000240: b97f 68bc dd33 8d3d db6c a3bc 62c0 30bd
00000250: a76c 9cbb 713a 72bd 703f c8bc ce3f c73c
00000260: 1ab1 143c a822 0cbd 1da7 fbbc 62ab febc
00000270: 1a04 1bbd 7603 07bd 618c db3c 4275 593d
00000280: 8941 893d b6b5 41bd b072 903d 90ac a23a
00000290: 4b06 1d3d 0605 a03a b785 023b ff55 063d
000002a0: c22b c4ba 0738 98bd f158 9c3c 1bc3 46bd
000002b0: ea2d 1ebd 893c 82bc 4ac1 2b3d 2765 79bc
000002c0: 02d9 45bd 4769 ae3c 5737 5d3c e107 d3bc
000002d0: e4cd 603d 7cfa e03a 820a e9ba 09c3 83bd
000002e0: 2fed 743d ad61 513d 7b5a 153c e411 79bc
000002f0: 3c44 2cbd d431 4a3d dc8d 41bd eae2 21bb
00000300: e67e 493d 7e97 563d 70e4 51bc 7b8e 7d3d
00000310: 8df3 913d 85ac 243d e8a4 33bc df1b 47bc
00000320: 887d c2b9 8939 48bd 9857 323d 2656 62bd
00000330: 2a76 2ebd ae4d d3bb 20d9 6cbd 0907 afbc
00000340: f7a5 29bd 809b 383d afcd b33c 0a11 8a3c
00000350: 5ad1 ee3a e21b 0abd 9527 8d3d 9551 dd3c
00000360: 0360 243d 05b8 80bd ee24 6e3d 096a 7fbc
00000370: 35d9 abbc 5e35 623d 740a 563d 535c 663c
00000380: 79d8 7fbd 43a7 68bd c668 7f3d 4336 3d3d
00000390: 1218 cebc b057 0dbd 047d 80bb a98f 143d
000003a0: a14f 0a3d 3b04 643d 014f 813d 0c89 63bc
000003b0: 8ba3 3b37 9bde 593d 3535 1bbd 0538 4b3c
000003c0: 6893 b53c 582c 513d e32e 433c 6af2 85bd
000003d0: 9826 86bd cc1d 3e3c 1fa5 533d 6f5c 4d3c
000003e0: 605b 92bd 31bc 34bd bc87 cdbc 1fac 253d
000003f0: a782 89bc af6f 663d 4598 913d 905e 363d

tcn.1.conv1.bias f4 [128]
-0.010139631 0.066733286 -0.006045288 0.041218508 0.06574007 0.025075248 0.085944735 0.0321062
0.014165271 0.04598794 -0.048284817 -0.030283492 -0.0036230597 0.0072487714 0.063338086 -0.035129506
-0.041827228 -0.024929972 -0.00023595967 -0.035620086 0.019309629 0.056722466 0.024375938 -0.06528675
0.06325325 0.02340064 0.017753307 0.02553559 0.06125431 0.045775592 0.018676106 -0.027271219
-0.019408192 0.045465168 0.020215478 -0.0030579343 0.051227212 -0.009754213 -0.058167584 -0.013768972
-0.015522465 0.06278279 -0.01534938 0.018596 0.010338418 0.02897709 -0.0029545794 -0.043433424
-0.035619285 -0.005073944 0.015300391 0.023949383 0.038202327 -0.040801633 0.0062272437 -0.016508635
0.051293653 -0.061824083 -0.056493197 0.010943421 -0.004696369 -0.03145693 0.06840846 -0.040606834
0.04239634 -0.0066467035 0.021129955 0.022086727 -0.019791422 0.028563296 -0.021814479 0.0006036084
-0.014857015 0.008619042 -0.07567088 -0.00026412652 -0.040382143 -0.022732958 0.07858305 0.06568521
0.039304733 0.026035685 0.01923748 0.015236445 0.037420724 0.0613005 0.070840284 0.048031442
0.0668461 -0.041239496 0.05910307 -0.003765887 0.013168864 -0.040943153 -0.035117473 0.054740816
-0.030352157 0.00022269937 -0.012121083 -0.04449263 0.0033039348 0.003704198 -0.016008515 -0.04094903
0.03307752 -0.0076304893 -0.070652604 -0.001557841 -0.035527583 0.011393935 0.026014995 -0.022203386
-0.04236664 -0.0122661 -0.023706602 -0.0309117 -0.0501695 0.029678695 0.040475816 -0.03288818
0.0381181 0.026507879 0.004982972 7.254631e-05 0.0052955924 0.029330404 0.054408904 0.036429603
00000000: b220 26bc 76ab 883d 8d17 c6bb bdd4 283d
00000010: bba2 863d 9b6a cd3c cb03 b03d ca81 033d
00000020: 7415 683c da5d 3c3d 4dc6 45bd 1615 f8bc
00000030: db70 6dbb 1a87 ed3b 66b7 813d f5e3 0fbd
00000040: 0753 2bbd f139 ccbc f16b 77b9 5ee6 11bd
00000050: 3a2f 9e3c d155 683d 0cb0 c73c 0fb5 85bd
00000060: ec8a 813d b3b2 bf3c 626f 913c 0330 d13c
00000070: cde5 7a3d 307f 3b3d a2fe 983c e467 dfbc
00000080: eefd 9ebc af39 3a3d ee9a a53c a067 48bb
00000090: a0d3 513d 22d0 1fbc 2241 6ebd 4197 61bc
000000a0: f051 7ebc 4394 803d f77b 7bbc a356 983c
000000b0: 7862 293c 5d61 ed3c 9ea1 41bb 3fe7 31bd
000000c0: 87e5 11bd 5443 a6bb 7eae 7a3c 7f31 c43c
000000d0: 0b7a 1c3d 9d1f 27bd e80d cc3b 1e3d 87bc
000000e0: 4b19 523d 403b 7dbd 6965 67bd 094c 333c
000000f0: 00e4 99bb fbd8 00bd bc19 8c3d 5a53 26bd
00000100: c9a7 2d3d 97cc d9bb ba18 ad3c 39ef b43c
00000110: 9f21 a2bc 93fd e93c 47b4 b2bc 793b 1e3a
00000120: d66a 73bc e236 0d3c 56f9 9abd 767a 8ab9
00000130: bf67 25bd 783a babc 26f0 a03d f885 863d
00000140: 00fe 203d ca48 d53c eb97 9d3c 48a2 793c
00000150: 7946 193d 3c16 7b3d b614 913d 9ebc 443d
00000160: 9ce6 883d bfea 28bd 1016 723d 1acd 76bb
00000170: 38c2 573c 02b4 27bd 57d7 0fbd e837 603d
00000180: 16a5 f8bc 6884 6939 8297 46bc e73d 36bd
00000190: d486 583b 21c2 723b 4a24 83bc 2cba 27bd
000001a0: 4b7c 073d 2f09 fabb 50b2 90bd 7830 ccba
000001b0: 5f85 11bd a1ad 3a3c 661d d53c e0e3 b5bc
000001c0: a488 2dbd c1f7 48bc 5934 c2bc 893a fdbc
000001d0: 897e 4dbd bc20 f33c f8c9 253d c2b5 06bd
000001e0: ba21 1c3d 0d27 d93c 3348 a33b 0124 9838
000001f0: a686 ad3b 5146 f03c dfdb 5e3d 3537 153d

tcn.1.conv2.weight f4 [128, 128, 3]
-0.031872284 -0.012236347 -0.04368416 -0.027554855 -0.04958832 0.019136682 -0.037085507 -0.011141229
-0.009335245 -0.031114426 -0.01503695 0.028158538 0.02332372 -0.044093322 -0.0395433 -0.0019552128
0.061749518 0.04193497 -0.02789774 0.021081068 0.047908884 -0.02836607 0.060338765 -0.022549264
-0.01150115 -0.029039746 -0.00020433405 -0.0075376593 0.006980556 -0.011432755 0.039880216 0.008511209
-0.0004811061 0.012916232 0.029583206 0.05649241 -0.0013696436 0.02815763 0.06454619 0.021899283
0.017551728 -0.009375612 0.07362928 -0.0063106027 0.032545958 0.047964256 0.037658043 -0.035261266
0.042948265 0.004764912 -0.0069778487 -0.023443364 0.044938277 0.011127785 0.05009861 -0.00959533
-0.0024077992 0.048520003 -0.0145883905 0.045680285 -0.000227047 0.005541256 0.049863417 0.06824436
0.03551913 -0.030639442 0.033414025 -0.015324159 -0.036015764 0.012878732 -0.05093654 0.043141447
0.02114445 0.056179762 -0.016957125 0.024510862 -0.02917375 0.046692885 0.031805705 -0.034689542
0.04140521 -0.0034041728 -0.008222762 -0.018756825 -0.02118384 0.043742713 0.022269309 0.01878033
0.013134381 -0.024040386 0.032820776 0.04487405 -0.016589656 -0.014236464 -0.01839689 0.013175185
0.038196545 0.059581738 -0.032383 0.033635393 -0.0174221 0.04634909 -0.02587863 0.01853874
0.02038812 0.030445164 0.061184037 -0.0076275356 0.03252262 -0.0100980215 -0.03452067 0.04855484
-0.018510064 -0.011832897 0.011032072 -0.003833747 0.018575078 0.04129359 0.057399668 -0.029788613
-0.018243784 -0.0336123 0.0049432223 0.025041552 -0.022793908 0.03472127 0.029502904 0.022895137
-0.040068906 0.03122875 0.0034247874 0.017386295 0.037226994 -0.026654825 0.04684743 0.05216709
0.049259454 0.05958541 0.013471327 0.002657313 0.0049353023 0.01722583 0.03701285 -0.02634655
-0.038740978 -0.03681974 -0.034021966 0.039975837 0.036572512 0.016570855 -0.020443855 0.032416917
0.005811757 -0.0003988879 0.03391975 -0.0060970373 0.016820444 -0.009850899 -0.03196211 0.06567503
0.065485016 0.02192938 -0.021264188 0.06781502 0.00439992 -0.03029861 0.045454394 0.046102215
-0.03292251 0.040196773 -0.034431756 0.017386233 0.04078871 0.02922318 -0.02389925 0.066121034
0.040083274 0.029484928 0.016809419 -0.04028466 -0.0041146674 0.03245332 0.04579583 0.045649473
-0.006758811 0.032029293 0.013193865 -0.00010086928 0.001669273 0.0124533875 -0.016976524 0.021887071
0.056885187 -0.027661758 0.059085105 0.0053223013 0.033499017 0.0055696755 0.033876233 0.028079033
-0.046043076 0.024781331 -0.022147775 -0.03541345 0.005529776 -0.012863514 0.034551155 0.024554605
-0.008298662 0.030797869 0.044688318 0.0060068937 0.010773655 -0.0376332 0.040442698 -0.017586065
0.06485237 -0.026549486 0.053829856 0.057803135 0.009663591 0.029877072 -0.0027320175 0.030972747
-0.004967685 0.020645121 0.045009855 0.02774546 0.044462796 -0.018009974 0.039747886 -0.018899115
0.035531744 0.039774463 -0.017563827 0.002846793 -0.004315355 -0.00413036 0.033994142 0.04039747
0.048349656 -0.009797355 0.05557331 0.031862587 -0.005569794 0.0059529124 -0.032274567 -0.036033593
-0.025597328 -0.023579234 0.048345163 -0.0032914977 0.011735015 0.018520003 0.03344414 -0.048206985
00000000: 838c 02bd f67a 48bc 29ee 32bd b8ba e1bc
00000010: 1f1d 4bbd 88c4 9c3c f9e6 17bd b489 36bc
00000020: dbf2 18bc aee3 febc 8a5d 76bc bcac e63c
00000030: 6311 bf3c 339b 34bd 28f8 21bd 0723 00bb
00000040: 10ed 7c3d 01c4 2b3d cd89 e4bc 34b2 ac3c
00000050: 1b3c 443d f65f e8bc c825 773d 3cb9 b8bc
00000060: 526f 3cbc c3e4 edbc 8142 56b9 78fe f6bb
00000070: 26bd e43b 7350 3bbc 7059 233d 9972 0b3c
00000080: f83c fcb9 9b9e 533c 7b58 f23c 9664 673d
00000090: 9d85 b3ba d4aa e63c cb30 843d 2066 b33c
000000a0: a4c8 8f3c 2b9c 19bc f3ca 963d 2cc9 cebb
000000b0: e94e 053d 2b76 443d 523f 1a3d 1e6e 10bd
000000c0: 85ea 2f3d fb22 9c3b 70a6 e4bb 4c0c c0bc
000000d0: 3311 383d 5051 363c 3334 4d3d bb35 1dbc
000000e0: 2bcc 1dbb e9bc 463d 2504 6fbc 401b 3b3d
000000f0: 7713 6eb9 6d93 b53b 953d 4c3d b3c3 8b3d
00000100: 827c 113d 91ff fabc 25dd 083d 2e12 7bbc
00000110: 4485 13bd 5101 533c d5a2 50bd 16b5 303d
00000120: 2037 ad3c c01c 663d abe9 8abc 01cb c83c
00000130: cafd eebc 0a41 3f3d b346 023d 9f16 0ebd
00000140: 8298 293d 8b18 5fbb c3b8 06bc eaa7 99bc
00000150: bc89 adbc 8f2b 333d 206e b63c 35d9 993c
00000160: 9631 573c 58f0 c4bc 146f 063d dacd 373d
00000170: 08e7 87bc 0f40 69bc 13b5 96bc bbdc 573c
00000180: fb73 1c3d fb0b 743d 09a4 04bd 44c5 093d
00000190: cbb8 8ebc 8bd8 3d3d 6cff d3bc 8ede 973c
000001a0: fd04 a73c 2368 f93c 1d9c 7a3d 68f0 f9bb
000001b0: 7036 053d 2c72 25bc 8c65 0dbd 71e1 463d
000001c0: 6ba2 97bc c4de 41bc ddbf 343c 9a3f 7bbb
000001d0: c32a 983c 7823 293d ea1b 6b3d 4007 f4bc
000001e0: fd73 95bc 0dad 09bd c1fa a13b f123 cd3c
000001f0: 4aba babc e437 0e3d 13b0 f13c 958e bb3c
00000200: 4b1f 24bd 6fd3 ff3c 6672 603b b46d 8e3c
00000210: 557b 183d 385b dabc 17e3 3f3d 29ad 553d
00000220: 48c4 493d d50f 743d d7b6 5c3c 5026 2e3b
00000230: 51b8 a13b 2f1d 8d3c c99a 173d b8d4 d7bc
00000240: dcae 1ebd 4cd0 16bd 9e5a 0bbd b4bd 233d
00000250: 0fcd 153d 9abf 873c df79 a7bc 9ac7 043d
00000260: 8d70 be3b d421 d1b9 70ef 0a3d a8c9 c7bb
00000270: 07cb 893c aa65 21bc b4ea 02bd a180 863d
00000280: 021d 863d 3ea5 b33c 3c32 aebc 9ae2 8a3d
00000290: 342d 903b ca34 f8bc 632e 3a3d add5 3c3d
000002a0: c1d9 06bd 5fa5 243d 5008 0dbd 936d 8e3c
000002b0: 1012 273d 7365 ef3c 5cc8 c3bc 776a 873d
000002c0: 5c2e 243d 608a f13c e8b3 893c 8701 25bd
000002d0: 55d4 86bb c6ed 043d 6994 3b3d f1fa 3a3d
000002e0: 0479 ddbb 2631 033d 152b 583c c889 d3b8
000002f0: 82cb da3a 4b09 4c3c 5a12 8bbc 844c b33c
00000300: 7100 693d e99a e2bc 3903 723d b366 ae3b
00000310: 4436 093d d381 b63b cec1 0a3d 0006 e63c
00000320: aa97 3cbd 3802 cb3c 406f b5bc b20d 11bd
00000330: 2033 b53b 7dc1 52bc 8385 0d3d bd26 c93c
00000340: 1cf7 07bc d04b fc3c 190b 373d 7ad5 c43b
00000350: fc83 303c 4525 1abd 3ea7 253d a710 90bc
00000360: 52d1 843d 4f7e d9bc b27c 5c3d fbc2 6c3d
00000370: 0a54 1e3c c3c0 f43c a60b 33bb 8fba fd3c
00000380: f6c7 a2bb f51f a93c 415c 383d 724a e33c
00000390: 9f1e 363d a789 93bc aece 223d 51d2 9abc
000003a0: bc89 113d 8cea 223d 04e2 8fbc 4391 3a3b
000003b0: d267 8dbb f957 87bb 713d 0b3d d177 253d
000003c0: 4a0a 463d 1685 20bc d7a0 633d 5882 023d
000003d0: d282 b6bb a610 c33b 5632 04bd f697 13bd
000003e0: 7db1 d1bc 3d29 c1bc 9405 463d 2bb6 57bb
000003f0: 3844 403c 43b7 973c b9fc 083d b074 45bd

tcn.1.conv2.bias f4 [128]
-0.02037237 -0.036946017 0.0180371 -0.019169135 0.042579148 0.040385757 -0.040914252 -0.01346205
0.055517394 0.0013088076 0.03257265 -0.024584617 0.018619658 -0.025444275 0.042645834 0.027673678
0.0026459312 -0.0014628002 0.028704014 0.022237066 -0.0095714545 0.007653932 -0.0026093822 -0.01416601
-0.0004411096 -0.0074735335 -0.027323596 0.033406325 0.007346176 -0.0074685696 0.062396612 -0.056666188
-0.032298904 0.040903103 0.024491293 -0.05209866 -0.0084855 0.03332092 -0.027682817 0.046507012
-0.024936771 -0.009207158 0.009159911 0.033071466 0.046501298 -0.026818687 -0.05105508 0.03950438
-0.018257238 0.045313675 0.0070145144 -0.016481023 -0.020458955 -0.00063404324 0.009435749 -0.050153356
-0.04779026 0.057356812 -0.0202584 -0.009122239 -0.012972035 0.047067907 -0.012026192 0.048958547
0.0015084287 0.02252867 -0.020564515 -0.027366195 -0.0413268 0.03919178 -0.05740738 0.026104938
0.04653727 -0.0514638 0.039826907 0.02808439 0.057296783 0.021419518 -0.009397627 0.054387826
-0.004443179 -0.0017904151 -0.01767576 0.027934168 -0.021461487 0.04305591 -0.03146926 -0.0546714
0.010661016 -0.005396145 -0.031731762 0.01869461 0.0013869734 -0.020712994 -0.0228056 -0.0335832
-0.0020238946 -0.030519214 -0.031794146 -0.02408429 0.059471253 -0.044934332 0.028015027 0.00023507893
-0.03358677 0.063917115 -0.009845534 0.01175085 0.04839899 0.012865081 0.023385912 0.05421773
-0.01041781 -0.0020271025 -0.034092605 -0.03882131 0.0055615553 -0.051525906 -0.019242957 -0.003996894
-0.03324055 0.028635887 0.013760232 -0.027818995 0.060594033 0.06165219 0.039026503 0.0154479155
00000000: f5e3 a6bc b554 17bd 8ac2 933c 9708 9dbc
00000010: 7967 2e3d 896b 253d b495 27bd ee8f 5cbc
00000020: 3566 633d 4c8c ab3a e66a 053d ae65 c9bc
00000030: 4188 983c 8370 d0bc 66ad 2e3d e9b3 e23c
00000040: 5c67 2d3b 6ebb bfba ae24 eb3c 822a b63c
00000050: 97d1 1cbc d6cd fa3b 2b02 2bbb 8d18 68bc
00000060: ba44 e7b9 8be4 f4bb bcd5 dfbc 12d5 083d
00000070: 31b8 f03b e7ba f4bb 9793 7f3d ce1a 68bd
00000080: db4b 04bd 038a 273d f7a1 c83c 6865 55bd
00000090: c406 0bbc 847b 083d 13c7 e2bc 237e 3e3d
000000a0: 3348 ccbc 9fd9 16bc 7413 163c f275 073d
000000b0: 2578 3e3d ddb2 dbbc 221f 51bd 58cf 213d
000000c0: 3490 95bc d59a 393d 03da e53b 3603 87bc
000000d0: 8a99 a7bc ec35 26ba 6698 1a3c 9b6d 4dbd
000000e0: b8bf 43bd faee 6a3d f2f4 a5bc 7275 15bc
000000f0: a988 54bc 47ca 403d 8109 45bc c288 483d
00000100: 78b6 c53a 0c8e b83c ea76 a8bc 122f e0bc
00000110: 4a46 29bd 8f87 203d 0024 6bbd 06da d53c
00000120: dd9d 3e3d b5cb 52bd 8a21 233d 3c11 e63c
00000130: 08b0 6a3d fc77 af3c 81f8 19bc c5c5 5e3d
00000140: 1698 91bb 5dac eaba c1cc 90bc 32d6 e43c
00000150: 00d0 afbc 655b 303d e9e5 00bd 1eef 5fbd
00000160: 8bab 2e3c 25d2 b0bb 2af9 01bd 7025 993c
00000170: 1bcb b53a 4cae a9bc cfd2 babc 8a8e 09bd
00000180: 51a3 04bb 6e03 fabc 943a 02bd 6b4c c5bc
00000190: 2198 733d 100d 38bd c57f e53c 857f 7639
000001a0: 4892 09bd fae6 823d 2a4f 21bc a386 403c
000001b0: 053e 463d 10c8 523c d093 bf3c 6913 5e3d
000001c0: 76af 2abc 23d9 04bb b0a4 0bbd 1803 1fbd
000001d0: b53d b63b d40c 53bd 68a3 9dbc 61f8 82bb
000001e0: 3e27 08bd cf95 ea3c 9972 613c a9e4 e3bc
000001f0: 7331 783d 0287 7c3d 41da 1f3d 4119 7d3c

tcn.1.downsample.weight f4 [128, 64, 1]
0.066326186 0.106353 0.003109884 -0.051251635 -0.09586217 0.04587903 -0.111892626 0.008940001
0.092017226 -0.036063258 -0.033081785 0.13340358 0.099875174 -0.04823649 -0.03022225 -0.106465034
0.047692657 0.118420005 0.05884552 0.078004204 0.050978735 -0.105665326 0.017534785 0.056122713
-0.05308822 -0.03589214 0.03369833 -0.056267455 -0.00027732554 0.039215863 -0.09817669 0.029834457
0.08687083 0.081506304 0.12396874 0.0368507 0.008743 0.12484029 -0.10070115 -0.008795935
0.03399619 -0.006986499 0.06363729 0.12443048 -0.040503718 -0.10467157 0.01909996 0.05214484
0.018164694 0.028278127 -0.022081278 -0.028402444 -0.010077329 0.05879601 -0.1242385 -0.078975566
-0.037792295 -0.060301304 0.07418169 0.14201099 -0.10940559 -0.04740466 0.07828172 0.12920667
-0.10844098 0.09918989 0.08033978 0.06709652 0.017218107 -0.0042044786 0.056961104 0.0051576793
0.046206284 -0.03295518 -0.04766504 -0.08800779 0.030630821 -0.021792382 -0.02943623 -0.10804236
-0.0536018 0.082548484 0.08220698 0.015196308 -0.04916823 0.079915844 0.009083693 0.00012109537
-0.014575391 -0.09371531 -0.054865777 0.08840639 -0.07250558 -0.051971585 -0.007201859 -0.04560139
-0.041071024 -0.11644149 0.011319372 -0.009126197 -0.009107659 -0.069473326 0.10532175 -0.104708426
0.04649527 0.059936434 0.042945273 -0.0836194 0.076362 0.010810107 0.021901837 -0.061073426
0.04880251 -0.079937875 -0.11633781 0.09369532 0.03998677 0.10165842 -0.04941365 0.0003798008
0.045413602 -0.012776777 0.025508223 -0.09722073 -0.08410306 0.015473186 -0.093191184 0.014016067
0.1052807 -0.10364145 -0.10602842 -0.109483 -0.07918802 -0.082017615 -0.106478915 -0.06761287
0.050801177 0.028127652 -0.100352935 -0.11151559 0.09424109 -0.016172245 -0.01847553 -0.12775902
0.021290675 0.00040571392 0.05216193 0.050956003 0.034739062 0.079723306 -0.0025124564 0.09381485
-0.07222918 -0.058972865 0.025399774 0.008160887 -0.009944558 -0.053465158 -0.07919258 -0.03372696
0.06385956 -0.00784516 -0.003015413 0.0663479 -0.1134652 0.066418275 0.08976628 -0.08552097
-0.013502906 0.11625408 -0.10168319 -0.07941136 -0.060647607 0.0028880984 0.050086353 0.011637757
-0.084381625 0.028234035 -0.063895695 0.039359767 -0.117620476 0.10924193 -0.046616126 -0.08397511
-0.12937793 0.0653564 -0.0765952 -0.06239258 0.09090311 0.0075537483 0.07847491 -0.082488574
0.016585901 -0.07413095 0.018874856 -0.12412223 -0.015777359 -0.12936203 -0.09019932 -0.12560335
-0.024752472 0.07817971 0.048593786 0.114717156 -0.05258006 0.025124505 -0.11490988 0.04092131
-0.086298175 -0.090419695 0.0041047116 0.009048884 -0.09230769 0.005312589 -0.025296655 0.01086522
-0.038958453 -0.116463475 -0.012992725 -0.10596579 0.08445482 -0.07699551 -0.018871093 -0.030205073
-0.003915513 -0.02007838 0.09598634 0.030344889 -0.080748156 0.10579597 -0.0074609816 0.09246787
0.11598091 0.06795499 -0.0309365 -0.06527622 0.040508777 0.12277958 -0.06259354 0.07578245
-0.115150124 0.06864798 0.026403118 -0.08792816 0.00974762 0.016617373 -0.015219688 -0.009571388
-0.10257634 0.06315644 -0.12470585 -0.08476704 0.068810366 -0.09415613 0.03653198 -0.075558774
00000000: 06d6 873d 9acf d93d 32cf 4b3b 3ced 51bd
00000010: 6353 c4bd a6eb 3b3d f627 e5bd 1579 123c
00000020: 8773 bc3d 11b7 13bd c480 07bd f39a 083e
00000030: 5b8b cc3d a093 45bd a794 f7bc 570a dabd
00000040: 6059 433d 3086 f23d 0008 713d abc0 9f3d
00000050: 14cf 503d 1067 d8bd 1ca5 8f3c eee0 653d
00000060: 0973 59bd a303 13bd 4307 0a3d b478 66bd
00000070: 0166 91b9 d0a0 203d dc10 c9bd 6467 f43c
00000080: 55e9 b13d c7ec a63d 53e3 fd3d c2f0 163d
00000090: cd3e 0f3c 44ac ff3d 683c cebd d31c 10bc
000000a0: 973f 0b3d 00ef e4bb 4454 823d 68d5 fe3d
000000b0: 3ae7 25bd 0c5e d6bd 8577 9c3c d495 553d
000000c0: 20ce 943c 88a7 e73c cce3 b4bc 3eac e8bc
000000d0: 621b 25bc 16d4 703d c170 febd f1bd a1bd
000000e0: 18cc 1abd 80fe 76bd 92ec 973d 546b 113e
000000f0: 0a10 e0bd 642b 42bd 2b52 a03d c14e 043e
00000100: 4e16 debd 1224 cb3d 2f89 a43d e669 893d
00000110: fd0c 8d3c b9c5 89bb 0c50 693d c001 a93b
00000120: cd42 3d3d 03fc 06bd 6b3c 43bd 6e3d b4bd
00000130: 7ded fa3c f085 b2bc 4024 f1bc 5045 ddbd
00000140: 908d 5bbd 2e0f a93d 225c a83d eff9 783c
00000150: a064 49bd ebaa a33d c5d3 143c 95f4 fd38
00000160: 9fcd 6ebc d0ed bfbd f0ba 60bd 690e b53d
00000170: ce7d 94bd 28e0 54bd 92fd ebbb 86c8 3abd
00000180: 173a 28bd e078 eebd e374 393c 0b86 15bc
00000190: 4a38 15bc 0848 8ebd eeb2 d73d 5f71 d6bd
000001a0: d371 3e3d e87f 753d 62e7 2f3d a640 abbd
000001b0: ae63 9c3d e01c 313c 7b6b b33c 2128 7abd
000001c0: 24e5 473d 78b6 a3bd 8542 eebd 55e3 bf3d
000001d0: 2bc9 233d 4a32 d03d f865 4abd 0020 c739
000001e0: 9d03 3a3d b055 51bc 9ff6 d03c a91b c7bd
000001f0: 3a3e acbd 3f83 7d3c 05db bebd a5a3 653c
00000200: 689d d73d f841 d4bd 6e25 d9bd a038 e0bd
00000210: 542d a2bd daf8 a7bd 9e11 dabd 9e78 8abd
00000220: e514 503d f66b e63c d785 cdbd 4962 e4bd
00000230: 7901 c13d a87b 84bc ff59 97bc 43d3 02be
00000240: c869 ae3c 00b6 d439 bfa7 553d 3eb7 503d
00000250: 8c4a 0e3d f945 a33d 06a8 24bb 0022 c03d
00000260: e4ec 93bd 888d 71bd 3013 d03c 3eb5 053c
00000270: 80ee 22bc 48fe 5abd b82f a2bd 4825 0abd
00000280: cdc8 823d fc88 00bc 3c9e 45bb 68e1 873d
00000290: 7160 e8bd 4e06 883d 62d7 b73d 9e25 afbd
000002a0: 4b3b 5dbc 9e16 ee3d 473f d0bd 6ca2 a2bd
000002b0: a069 78bd 4046 3d3b 5927 4d3d 4aac 3e3c
000002c0: 46d0 acbd 104b e73c bfdb 82bd b537 213d
000002d0: 01e3 f0bd 3cba df3d 8df0 3ebd 24fb abbd
000002e0: a67b 04be 94d9 853d f2dd 9cbd 5d8f 7fbd
000002f0: 692b ba3d 6f85 f73b 74b7 a03d c5ef a8bd
00000300: 28df 873c f8d1 97bd 719f 9a3c cc33 febd
00000310: 853f 81bc 7b77 04be 6cba b8bd 2a9e 00be
00000320: b2c5 cabc af1c a03d 470a 473d d4f0 ea3d
00000330: 305e 57bd e8d1 cd3c df55 ebbd 1b9d 273d
00000340: 19bd b0bd f62d b9bd d180 863b c541 143c
00000350: d00b bdbd 3a15 ae3b ee3a cfbc 0904 323c
00000360: e692 1fbd 6784 eebd 70df 54bc 9804 d9bd
00000370: a6f6 ac3d d2af 9dbd 8d97 9abc a170 f7bc
00000380: b44d 80bb 6a7b a4bc 7c94 c43d d895 f83c
00000390: 4a5f a5bd 8fab d83d 407b f4bb cb5f bd3d
000003a0: 6687 ed3d fc2b 8b3d 8b6e fdbc 8aaf 85bd
000003b0: 88ec 253d dc73 fb3d 0b31 80bd d433 9b3d
000003c0: d4d3 ebbd 5097 8c3d 5a4b d83c ae13 b4bd
000003d0: 7bb4 1f3c 2821 883c 005c 79bc 50d1 1cbc
000003e0: 8b13 d2bd 2a58 813d c865 ffbd 589a adbd
000003f0: 73ec 8c3d eed4 c0bd 8fa2 153d 8fbe 9abd

tcn.1.downsample.bias f4 [128]
0.09928301 -0.1257047 -0.08896017 -0.035073195 0.0067538363 0.09395527 0.02415842 -0.10630464
0.12662114 -0.040386844 -0.062778525 0.11170254 -0.0523736 0.019614754 -0.10659719 -0.092664726
0.13853545 0.078944504 0.09454964 -0.04274487 -0.0798523 0.030762231 0.02655193 0.13811626
0.08362037 0.072074994 -0.080436654 -0.05710813 0.05157895 -0.021857059 0.12771237 -0.10642992
0.009474089 -0.047020238 -0.11878011 -0.00907461 -0.076525494 -0.078674026 -0.092832685 -0.051058445
-0.089249834 -0.10627344 0.0019687216 -0.03754894 -0.042448767 -0.07551743 -0.042509384 0.08977429
0.03222598 0.05881962 0.10556119 -0.004452096 -0.114011556 0.03241391 0.046434563 0.05807149
0.10928772 -0.104933284 -0.06704996 0.11489965 0.09358789 -0.008523033 0.01745896 -0.010765682
0.05999404 -0.11976166 0.0064283554 -0.116249904 0.08927667 0.04533229 0.11137034 -0.067722686
0.07905554 0.09393146 -0.04235605 0.023049286 -0.038552754 0.09276014 0.091667905 0.063491136
-0.007692892 0.0150074605 0.077476606 -0.0627925 -0.0012561205 0.0043686116 -0.03094687 0.078148514
0.037438847 0.036343183 -0.10764871 -0.08447268 -0.075591564 0.06944909 -0.034615688 -0.12244848
-0.005855711 -0.104570106 -0.07351865 0.06925369 -0.0899578 -0.023978785 0.06542146 0.05535165
0.05857626 -0.106794916 -0.11116283 0.08394656 -0.042324707 0.0053893505 0.06603261 0.0012970862
-0.10126219 0.055050205 0.12569018 -0.057457227 0.11303912 -0.09254972 -0.032965098 0.06001419
0.067177005 0.076816164 -0.121748835 0.05240327 0.030941945 0.112644024 -0.048242748 0.016482411
00000000: e454 cb3d bcb8 00be c030 b6bd e9a8 0fbd
00000010: 494f dd3b 9f6b c03d e1e7 c53c 3fb6 d9bd
00000020: f9a8 013e ad6c 25bd 0792 80bd 4dc4 e43d
00000030: b385 56bd 1faf a03c a14f dabd 01c7 bdbd
00000040: 3ddc 0d3e a8ad a13d 3ea3 c13d 3f15 2fbd
00000050: 9a89 a3bd 1301 fc3c 6f83 d93c 596e 0d3e
00000060: 2841 ab3d 0e9c 933d f9bb a4bd 37ea 69bd
00000070: 7344 533d 930d b3bc 08c7 023e eef7 d9bd
00000080: 3639 1b3c 4b98 40bd fc42 f3bd acad 14bc
00000090: 66b9 9cbd d91f a1bd 101f bebd a922 51bd
000000a0: 9ec8 b6bd e4a5 d9bd ab05 013b ebcc 19bd
000000b0: c2de 2dbd e2a8 9abd 521e 2ebd 95db b73d
000000c0: 64ff 033d d8ec 703d 7730 d83d e3e2 91bb
000000d0: e47e e9bd 73c4 043d 2b32 3e3d 5fdc 6d3d
000000e0: 3dd2 df3d 43e7 d6bd 7d51 89bd 8250 eb3d
000000f0: 02ab bf3d 31a4 0bbc 1806 8f3c 8b62 30bc
00000100: 4fbc 753d 9a45 f5bd f4a4 d23b 6e14 eebd
00000110: b0d6 b63d 5aae 393d 2216 e43d 31b2 8abd
00000120: dfe7 a13d 235f c03d 8a7d 2dbd dbd1 bc3c
00000130: 7ee9 1dbd 07f9 bd3d 62bc bb3d a407 823d
00000140: a814 fcbb dae1 753c 0eac 9e3d 5b99 80bd
00000150: 69a4 a4ba 9226 8f3b 4a84 fdbc 540c a03d
00000160: 7a59 193d 97dc 143d ed76 dcbd 0300 adbd
00000170: c0cf 9abd 533b 8e3d 2ec9 0dbd 45c6 fabd
00000180: 44e1 bfbb da28 d6bd f290 96bd e1d4 8d3d
00000190: cc3b b8bd 286f c4bc b0fb 853d 69b8 623d
000001a0: a9ed 6f3d 4bb7 dabd 56a9 e3bd 2dec ab3d
000001b0: ac5c 2dbd 2699 b03b 1b3c 873d fe02 aa3a
000001c0: 8d62 cfbd 537c 613d edb4 003e 4558 6bbd
000001d0: 0e81 e73d b58a bdbd 6906 07bd 70d1 753d
000001e0: 1994 893d cb51 9d3d 7457 f9bd d0a4 563d
000001f0: f679 fd3c e9b1 e63d 309a 45bd 1f06 873c
