models/tcn.onnx (onnx, 578934 bytes, 22 tensors)

tcn.0.conv1.weight f4 [64, 1, 3]
-0.039192896 0.022203937 0.10504198 0.4974232 0.23911445 -0.071067505 0.42580792 -0.37957397
0.309487 0.5751173 0.3165456 0.33589572 0.039787497 0.19386892 -0.32631838 -0.5772514
-0.4787242 -0.53969306 -0.47551876 0.515054 -0.16884245 0.12766603 -0.34007618 0.53057414
0.15837474 0.4634923 0.16526106 0.016558383 0.48485166 0.0073177917 -0.42246604 -0.12336683
0.13243571 0.48951095 -0.21876092 -0.23571576 0.10002006 -0.21856017 0.17666663 0.24377371
0.025801431 -0.20616333 0.31992352 0.22035587 0.39868766 0.5893001 0.07485564 0.33161804
-0.18115227 -0.56766033 0.2288813 -0.5669053 -0.5884279 -0.19287872 -0.084121436 0.5349981
0.08050805 0.5084813 0.1698518 0.37604472 0.28707483 0.48075607 0.54837537 -0.30203584
-0.008678503 -0.2146986 0.6005452 0.03769671 0.13824837 0.30010998 0.13753067 0.29046836
0.22699502 0.013047758 0.2276833 -0.42585793 -0.14332232 0.42662644 -0.6012751 -0.33619183
-0.4459318 0.48664704 0.54126096 -0.1724091 -0.04896777 0.2753298 -0.3588055 0.43601444
0.23680209 0.5904127 0.292612 0.18181981 0.50053984 -0.3784934 0.07466481 -0.26468936
-0.242821 0.52353954 0.61612046 -0.4857891 -0.257282 -0.44090065 0.43014362 -0.41859683
0.21754864 0.1125304 -0.073528916 -0.19188169 -0.10216507 0.3208953 0.5553986 0.2658279
0.31507456 -0.00456481 0.60229665 0.093643576 -0.40196893 -0.35999438 -0.46690154 0.20071538
0.35605514 0.035077468 -0.3863247 0.50864476 -0.124714956 0.14170738 -0.16665371 0.5588134
-0.12407576 -0.19363873 0.05061855 0.40925545 -0.13171062 -0.30325505 -0.25020054 -0.10220369
-0.25856692 0.45652258 0.15018918 0.33012015 -0.10363425 -0.39933726 -0.5621565 0.1682385
0.3160081 -0.28202543 -0.13767567 -0.34882858 -0.33913183 -0.43222812 0.0782183 0.0086622005
-0.17082702 0.3875238 -0.15693553 0.4342552 -0.2051713 0.39940745 0.50553864 -0.12744246
0.55443186 0.4036345 0.35584828 0.37886187 0.101609245 0.59598947 0.4450986 0.51693517
-0.19234477 0.57084876 -0.40101936 -0.077979915 -0.006438852 -0.32051864 0.26738018 -0.15404543
0.09181392 0.020285543 -0.34814912 -0.17052883 0.19279094 0.17154326 -0.2729329 0.22803184
-0.23747508 -0.23073219 0.39524388 0.5648522 -0.24624299 -0.5061496 0.23036376 -0.019935321
00000000: bb88 20bd 08e5 b53c 4020 d73d 41ae fe3e
00000010: 6bda 743e d78b 91bd 7f03 da3e 8557 c2be
00000020: 1475 9e3e e33a 133f 4412 a23e 86fa ab3e
00000030: 37f8 223d 9385 463e 3413 a7be bfc6 13bf
00000040: 571b f5be 5329 0abf 3277 f3be 94da 033f
00000050: 09e5 2cbe e2ba 023e 771e aebe b5d3 073f
00000060: fd2c 223e dd4e ed3e 323a 293e 72a5 873c
00000070: 7a3e f83e 16ca ef3b 784d d8be c0a7 fcbd
00000080: 3a9d 073e 2ea1 fa3e dd02 60be 795f 71be
00000090: 51d7 cc3d 3dce 5fbe 19e8 343e d19f 793e
000000a0: 865d d33c 7b1c 53be 04cd a33e f8a4 613e
000000b0: ca20 cc3e 5fdc 163f ea4d 993d d7c9 a93e
000000c0: fb7f 39be 3052 11bf dc5f 6a3e b520 11bf
000000d0: 36a3 16bf 0082 45be dc47 acbd a3f5 083f
000000e0: 68e1 a43d d52b 023f a1ed 2d3e ef88 c03e
000000f0: 79fb 923e a925 f63e 5462 0c3f 71a4 9abe
00000100: 4830 0ebc f3d9 5bbe 55bd 193f de67 1a3d
00000110: fb90 0d3e 04a8 993e d7d4 0c3e 45b8 943e
00000120: 6271 683e 43c6 553c d025 693e 0d0a dabe
00000130: 16c3 12be c86e da3e 2aed 19bf 5621 acbe
00000140: 2c51 e4be cd29 f93e 1490 0a3f 038c 30be
00000150: 6e92 48bd 07f8 8c3e 5bb5 b7be 493d df3e
00000160: 3f7c 723e 4925 173f 3dd1 953e f92e 3a3e
00000170: 6123 003f e3c9 c1be dde9 983d 5d85 87be
00000180: 11a6 78be b006 063f 12ba 1d3f 59b9 f8be
00000190: 77ba 83be bbbd e1be c93b dc3e 5352 d6be
000001a0: 12c5 5e3e 5776 e63d 5496 96bd a27c 44be
000001b0: ec3b d1bd 644c a43e 9a2e 0e3f 981a 883e
000001c0: 7451 a13e 6794 95bb 1d30 1a3f 34c8 bf3d
000001d0: dfce cdbe 2f51 b8be b80d efbe 5588 4d3e
000001e0: dc4c b63e 64ad 0f3d 5acc c5be 8b36 023f
000001f0: 8e6a ffbd bd1b 113e 45a7 2abe 650e 0f3f
00000200: 6f1b febd 3b49 46be 6655 4f3d ee89 d13e
00000210: 26df 06be 3f44 9bbe 491a 80be 2b50 d1bd
00000220: e262 84be 54bd e93e 31cb 193e 8205 a93e
00000230: 323e d4bd ef75 ccbe 7de9 0fbf b746 2c3e
00000240: d0cb a13e a365 90be dafa 0cbe a999 b2be
00000250: b0a2 adbe 014d ddbe eb30 a03d e7eb 0d3c
00000260: 47ed 2ebe 8569 c63e b5b3 20be b356 de3e
00000270: 6d18 52be 227f cc3e fb6a 013f 4780 02be
00000280: 3fef 0d3f 2ea9 ce3e bf31 b63e 2ffa c13e
00000290: 8218 d03d c492 183f f7e3 e33e dd55 043f
000002a0: 07f6 44be 2523 123f 6952 cdbe efb3 9fbd
000002b0: 01fd d2bb 051b a4be 0ee6 883e 16be 1dbe
000002c0: f008 bc3d de2d a63c 9a40 b2be 1c9f 2ebe
000002d0: fd6a 453e 09a9 2f3e dcbd 8bbe 2e81 693e
000002e0: ab2c 73be 0f45 6cbe 685d ca3e 279a 103f
000002f0: 1f27 7cbe 0593 01bf 7ae4 6b3e 664f a3bc

tcn.0.conv1.bias f4 [64]
-0.2848465 -0.09152301 0.12697625 0.16059692 0.32620302 0.54894364 0.019768286 0.35512415
-0.3922959 0.33343467 -0.027200077 0.5378671 -0.26871622 0.41517672 -0.11781279 -0.03457364
-0.10753763 -0.045032185 0.4241535 -0.0041887444 0.39809543 -0.010192775 -0.19352914 -0.04335569
0.21332447 -0.5693129 -0.37019885 0.29107508 -0.32211918 -0.19011135 -0.02332652 -0.5310513
-0.16183355 0.131765 -0.42010948 -0.24533543 -0.095558956 -0.2164027 0.38161674 0.23786604
0.3375977 -0.19890793 0.54056245 -0.57071495 0.22211182 -0.51066124 -0.07678187 -0.22641274
-0.40784526 0.003613062 0.15928926 0.2279917 -0.37191284 -0.17155433 0.5382584 -0.41730103
-0.16296227 -0.17502539 0.44552755 -0.3549803 -0.49512297 0.34520105 -0.45281413 0.20541394
00000000: 67d7 91be 6a70 bbbd 1006 023e 8573 243e
00000010: 1504 a73e 9287 0c3f 1af1 a13c d5d2 b53e
00000020: 02db c8be f3b7 aa3e b2d2 debc a9b1 093f
00000030: 2c95 89be 0b92 d43e d547 f1bd 179d 0dbd
00000040: b03c dcbd ab73 38bd a62a d93e bc41 89bb
00000050: 2ad3 cb3e 99ff 26bc 812c 46be bc95 31bd
00000060: bb71 5a3e 7dbe 11bf b48a bdbe cb07 953e
00000070: ceec a4be 8dac 42be 4217 bfbc faf2 07bf
00000080: b2b7 25be 67ed 063e 9718 d7be 3639 7bbe
00000090: 6ab4 c3bd ab98 5dbe 4563 c33e 2893 733e
000000a0: 9bd9 ac3e 85ae 4bbe 4d62 0a3f 601a 12bf
000000b0: 4871 633e b2ba 02bf d03f 9dbd bed8 67be
000000c0: 18d1 d0be 1fc9 6c3b b91c 233e a876 693e
000000d0: 5c6b bebe f0ab 2fbe 4dcb 093f 7ba8 d5be
000000e0: 95df 26be db39 33be 301c e43e fabf b5be
000000f0: c280 fdbe 31be b03e 41d7 e7be 0858 523e

tcn.0.conv2.weight f4 [64, 64, 3]
0.06430804 0.06766028 -0.03920019 0.016609024 -0.041143674 0.020517144 0.025724957 0.025810316
0.06379236 -0.006634123 -0.02962263 0.002339096 0.01267634 0.039550897 -0.056091662 0.07204877
-0.00030477336 -0.06061689 0.05036643 0.04912733 0.026376178 -0.055085167 0.018347466 0.0044503785
-0.0068073072 0.06792253 -0.03301717 0.0122208 -0.045166545 -0.053743638 0.064091966 0.09106144
0.08723684 0.0341832 -0.026211716 -0.025747929 0.02752703 -0.040259648 0.008199648 -0.016914036
0.0048256516 0.063726954 -0.046206284 0.023300495 -0.019355658 0.033267044 -0.04673325 0.04761488
-0.010543595 -0.030437732 0.02593446 0.100815274 0.09414716 0.059127033 0.04686177 0.0034096248
-0.067525566 0.028681628 0.051199708 0.0205442 0.004788084 -0.00104709 -0.04997414 0.028534245
-0.016578667 -0.01640685 -0.018088842 0.08269525 -0.034029584 -0.043115653 0.008764211 0.0016916075
-0.012632215 0.030128485 0.034932412 0.060029328 -0.016748998 0.017200977 0.015711052 0.08331467
0.065418586 -0.021323666 -0.0036996575 0.031139383 0.026918296 -0.043997314 0.037545472 0.038262542
-0.057624836 0.032048024 -0.007788188 -0.048236366 -0.013539453 0.049049973 0.07212958 0.027286142
0.032171864 -0.00864972 0.04303537 -0.031312484 -0.055296857 0.072336376 -0.0025896288 0.025555963
0.049590815 0.05371852 0.03371462 0.0006063872 0.050060995 -0.04322954 0.020265376 -0.025849173
-0.037180357 0.06113894 -0.007710131 -0.017028723 -0.052553564 0.0116032455 -0.065815136 0.055023205
-0.029814066 0.053857688 0.04593372 0.088702455 0.03318064 0.07771693 -0.05518146 -0.043834906
-0.0059572626 0.026697606 0.025867226 0.024367725 -0.011952119 0.0076060784 0.065207765 -0.033958163
0.044552285 0.031888075 0.07834112 0.008941761 0.064631015 0.0502753 0.034922477 0.020291768
-0.012834151 0.029500362 -0.03522551 0.0070200767 -0.012181933 -0.01633854 0.057359572 0.03651114
-0.038296577 -0.035900764 0.0020591232 -0.06048245 0.023246562 -0.043801643 -0.033441123 0.030470883
0.00953059 -0.039369028 0.02884309 0.029540466 -0.044781975 0.01116435 -0.036389284 0.044800624
0.023766125 -0.012924392 -0.035269838 -0.013743095 0.049592532 0.026388867 0.071048245 0.058071584
-0.021216115 -0.017148193 0.03478527 0.02131915 -0.06062086 -0.05389407 0.004283674 0.049213424
-0.02403373 0.008456907 0.017302623 0.029098906 0.0066949585 -0.021173183 0.013390474 -0.004753789
0.04722912 0.057586763 -0.0356179 -0.06777521 0.02179046 -0.035326228 0.06924408 -0.041159723
0.056443427 -0.052441705 -0.009705284 -0.02684079 -0.009139761 0.057323765 0.05270146 0.047029547
-0.07094041 -0.049841285 -0.057858203 -0.0716021 -0.020982018 0.0522489 0.026927914 0.047156025
0.038458347 0.03996258 0.024846897 -0.052720077 0.071127445 -0.03461766 -0.020756623 0.060354024
-0.0225572 -0.029077025 0.06731032 -0.041857164 0.06656671 0.017446855 0.03876222 -0.033202358
-0.03170474 -0.014585538 0.013995574 0.07193438 -0.053657636 -0.011979365 -0.030867254 -0.045123804
-7.424552e-05 -0.034380056 -0.07056436 -0.024825234 0.0052677416 0.06599177 0.032741312 -0.022249782
-0.010882096 0.060039505 -0.056258347 0.019697543 -0.004715511 -0.0033301655 0.02467165 0.024135044
00000000: efb3 833d 7991 8a3d 6190 20bd a60f 883c
00000010: 4586 28bd 9213 a83c 25bd d23c 2870 d33c
00000020: 92a5 823d 0f63 d9bb 28ab f2bc 854b 193b
00000030: 6cb0 4f3c 1f00 223d 5fc0 65bd 4e8e 933d
00000040: fdc9 9fb9 6b49 78bd 084d 4e3d bd39 493d
00000050: db12 d83c fca0 61bd 6d4d 963c 7bd4 913b
00000060: d50f dfbb f81a 8b3d 033d 07bd c039 483c
00000070: 8e00 39bd 4a22 5cbd a642 833d 6c7e ba3d
00000080: 3aa9 b23d af03 0c3d f4b9 d6bc 52ed d2bc
00000090: 5e80 e13c 4de7 24bd d157 063c 4e8f 8abc
000000a0: 8020 9e3b 4783 823d cd42 3dbd aee0 be3c
000000b0: c28f 9ebc 0643 083d 5d6b 3fbd d207 433d
000000c0: 0bbf 2cbc 8d58 f9bc 8174 d43c 3d78 ce3d
000000d0: 3ad0 c03d 302f 723d 21f2 3f3d 0374 5f3b
000000e0: d84a 8abd bcf5 ea3c c9b6 513d 4f4c a83c
000000f0: 5ce5 9c3b 833e 89ba afb1 4cbd a6c0 e93c
00000100: fccf 87bc a967 86bc 0d2f 94bc 215c a93d
00000110: 9b62 0bbd 0a9a 30bd c497 0f3c eeb8 dd3a
00000120: 5af7 4ebc 03d0 f63c 4a15 0f3d 50e1 753d
00000130: 3235 89bc 10e9 8c3c 77b4 803c e2a0 aa3d
00000140: 2efa 853d f8ae aebc f475 72bb 0518 ff3c
00000150: c283 dc3c 8736 34bd 48c9 193d 2fb9 1c3d
00000160: 0508 6cbd ca44 033d 0e34 ffbb 7f93 45bd
00000170: 95d4 5dbc a0e8 483d acb8 933d 3087 df3c
00000180: a5c6 033d 8eb7 0dbc db45 303d 8541 00bd
00000190: f57e 62bd 1825 943d c3b6 29bb bd5a d13c
000001a0: bd1f 4b3d f307 5c3d 5718 0a3d f5f5 1e3a
000001b0: c20c 4d3d 7511 31bd 9303 a63c a5c1 d3bc
000001c0: 6e4a 18bd d36c 7a3d 44a5 fcbb d27f 8bbc
000001d0: 6842 57bd 8a1b 3e3c 16ca 86bd 0360 613d
000001e0: a13c f4bc e199 5c3d ff24 3c3d a2a9 b53d
000001f0: 6ce8 073d 0e2a 9f3d f405 62bd 3b8c 33bd
00000200: 2435 c3bb f0b4 da3c 81e7 d33c d39e c73c
00000210: d2d2 43bc 693c f93b a68b 853d b717 0bbd
00000220: 757c 363d 129d 023d 4f71 a03d 7780 123c
00000230: 445d 843d 79ed 4d3d df0a 0f3d ec3a a63c
00000240: 5546 52bc beaa f13c a048 10bd ac08 e63b
00000250: bb96 47bc 67d8 85bc dff1 6a3d b58c 153d
00000260: dfdc 1cbd ae0c 13bd 5bf2 063b 72bc 77bd
00000270: 936f be3c 5a69 33bd 8ff9 08bd 139e f93c
00000280: 3126 1c3c 6b41 21bd 5848 ec3c d9fe f13c
00000290: 4e6d 37bd aeea 363c ee0c 15bd dc80 373d
000002a0: 2db1 c23c d4c0 53bc 1b77 10bd b82a 61bc
000002b0: 8a21 4b3d 772d d83c be81 913d 78dc 6d3d
000002c0: 6bcd adbc 5e7a 8cbc 007b 0e3d 80a5 ae3c
000002d0: 944d 78bd 07c0 5cbd 105e 8c3b 0494 493d
000002e0: 63e2 c4bc d78e 0a3c 3bbe 8d3c d460 ee3c
000002f0: 6261 db3b 6273 adbc b863 5b3c acc5 9bbb
00000300: 5273 413d 19e0 6b3d 13e4 11bd bbcd 8abd
00000310: e881 b23c 3cb2 10bd d7cf 8d3d 1997 28bd
00000320: 3931 673d 1dcd 56bd e902 1fbc 37e1 dbbc
00000330: f0be 15bc 53cc 6a3d 7cdd 573d 0ea2 403d
00000340: 3549 91bd 6026 4cbd b9fc 6cbd 1fa4 92bd
00000350: 7be2 abbc f102 563d ee97 dc3c ad26 413d
00000360: 8086 1d3d cdaf 233d b88b cb3c 02f1 57bd
00000370: 44ab 913d 3fcb 0dbd cb09 aabc c835 773d
00000380: e1c9 b8bc f132 eebc fed9 893d 6b72 2bbd
00000390: 2154 883d b5ec 8e3c 22c5 1e3d 32ff 07bd
000003a0: d4dc 01bd 2ef8 6ebc b14d 653c 5552 933d
000003b0: 1cc8 5bbd 1945 44bc 53dd fcbc bdd3 38bd
000003c0: 43b4 9bb8 1ad2 0cbd 0c84 90bd 4a5e cbbc
000003d0: 059d ac3b b126 873d c11b 063d 2d45 b6bc
000003e0: d24a 32bc fceb 753d 276f 66bd be5c a13c
000003f0: 9384 9abb e83e 5abb 331c ca3c dbb6 c53c

tcn.0.conv2.bias f4 [64]
-0.01650562 0.03842053 0.027397122 -0.040789835 -0.019595167 0.057534613 -0.012305893 -0.07224632
0.044000916 -0.062051143 0.07147326 0.049038026 -0.0008241729 -0.062927455 -0.041776977 -0.024236064
0.05506712 0.027910948 0.0023225397 -0.021371493 -0.013039704 0.010477674 -0.03619334 -0.020664018
0.04768761 0.011798895 -0.06340971 0.07116516 0.05691223 0.06715294 -0.048428934 -0.06686658
0.048065424 0.010863985 -0.053648803 0.045000434 0.06918454 0.030627085 -0.054529715 0.04314759
-0.012789566 0.06349117 -0.0706251 -0.015664041 0.017741583 0.022927957 -0.059559397 0.03731794
0.061387535 0.05443619 -0.051040776 0.018069236 -0.07055998 0.053127408 0.064961165 0.027937734
-0.030586582 0.018083228 0.03145858 0.069112346 0.03833674 0.05231331 0.024871016 0.071605206
00000000: cb36 87bc d85e 1d3d ee6f e03c 3e13 27bd
00000010: 0b86 a0bc 6aa9 6b3d a89e 49bc e1f5 93bd
00000020: 4e3a 343d 5729 7ebd 9360 923d 19dc 483d
00000030: 4f0d 58ba 1ce0 80bd 561e 2bbd b68a c6bc
00000040: 0f8e 613d 80a5 e43c c035 183b 4513 afbc
00000050: 7ca4 55bc 8daa 2b3c 783f 14bd 9647 a9bc
00000060: 1554 433d 2750 413c f3dc 81bd 0abf 913d
00000070: cc1c 693d 7b87 893d 6b5d 46bd 58f1 88bd
00000080: 40e0 443d dbfe 313c d9be 5bbd 6052 383d
00000090: a0b0 8d3d a7e5 fa3c 8d5a 5fbd 87bb 303d
000000a0: 548b 51bc a907 823d e4a3 90bd e051 80bc
000000b0: cc56 913c 69d3 bb3c 8ef4 73bd b2da 183d
000000c0: 7f71 7b3d 7bf8 5e3d 2210 51bd ef05 943c
000000d0: c081 90bd 209c 593d 5c0a 853d addd e43c
000000e0: b690 fabc 4723 943c b6da 003d c68a 8d3d
000000f0: fc06 1d3d 7b46 563d 4dbe cb3c c0a5 923d

tcn.0.downsample.weight f4 [64, 1, 1]
-0.959882 -0.13267136 -0.13736589 0.5509036 0.89927804 0.25427604 0.99777883 -0.09562376
1.0387795 -0.748553 -0.78747475 -0.21959057 0.1402943 0.21419702 -0.5163421 -0.4839038
-0.7148287 0.072257325 -0.4287092 -0.70634246 -0.100748666 0.21520327 0.68566334 -0.1496371
0.87119293 -0.6793832 0.7019367 0.84226483 -0.4275933 0.7774319 0.3868839 0.17256546
0.010877231 0.43261513 -0.9226044 0.9776531 0.80350375 0.3076801 0.17182486 0.83537936
-0.978859 0.4760504 -0.022212744 -0.3308692 -0.70940584 -0.833967 -0.15921073 0.92067593
0.89687884 -0.009879465 0.6623589 -0.87674826 -0.7722971 0.37991196 0.41006437 -0.14121272
0.70240456 -0.98945206 0.50567424 -0.7138104 -0.27113885 -0.29169068 -0.8806922 -0.08771479
00000000: d4ba 75bf 00db 07be a5a9 0cbe 0508 0d3f
00000010: 1637 663f 7830 823e 6f6e 7f3f 64d6 c3bd
00000020: baf6 843f 2ba1 3fbf f297 49bf 5adc 60be
00000030: 4fa9 0f3e 7756 5b3e ff2e 04bf 3dc2 f7be
00000040: 04ff 36bf a6fb 933d c67f dbbe dcd2 34bf
00000050: 5155 cebd 3f5e 5c3e a287 2f3f 783a 19be
00000060: 8006 5f3f 0fec 2dbf 20b2 333f ab9e 573f
00000070: 82ed dabe c705 473f a615 c63e 00b5 303e
00000080: 6a36 323c bb7f dd3e cd2f 6cbf 7947 7a3f
00000090: 6cb2 4d3f 3f88 9d3e dbf2 2f3e 6cdb 553f
000000a0: 8196 7abf e1bc f33e 80f7 b5bc b067 a9be
000000b0: 9f9b 35bf dc7e 55bf 2308 23be 6bb1 6b3f
000000c0: da99 653f 7bdd 21bc 5a90 293f 9372 60bf
000000d0: 43b5 45bf d283 c23e f5f3 d13e 119a 10be
000000e0: c9d0 333f bb4c 7dbf de73 013f 47bc 36bf
000000f0: b6d2 8abe 7b58 95be 0b75 61bf d0a3 b3bd

tcn.0.downsample.bias f4 [64]
0.91536194 -0.7875719 0.6648062 -0.9348231 -0.024499804 0.40364212 -0.9360944 -0.30234963
0.684779 0.2184003 -0.556443 -0.39825413 -0.14563909 -0.9213092 0.51330584 -0.3191948
-0.07977021 -0.44823265 0.4402222 -0.20998725 0.2741731 0.84722006 -0.697422 0.2124487
0.109548904 0.1446915 0.7582899 -0.37749726 -0.8297359 0.047922716 0.381521 -0.8070545
0.30003294 0.30557728 -0.26290417 0.067083865 0.8641907 0.20400918 -0.7196285 -0.8291379
-0.59278053 -0.81236684 -0.7947401 -0.79831684 -0.5860921 0.48058426 -0.23245022 0.31253237
0.30913636 -0.09605829 -0.9395877 -0.43892437 0.5931369 0.43886036 -0.044566482 -0.97301024
0.0730468 0.19702394 -0.2211794 -0.8748791 -0.22375219 0.08242493 0.6617131 -0.8685504
00000000: 2955 6a3f 509e 49bf bd30 2a3f 9150 6fbf
00000010: d0b3 c8bc 2eaa ce3e e2a3 6fbf 92cd 9abe
00000020: ad4d 2f3f 54a4 5f3e 0c73 0ebf f7e7 cbbe
00000030: 6a22 15be ebda 6bbf 0368 033f 806d a3be
00000040: 905e a3bd c07e e5be ce64 e13e e606 57be
00000050: 6b60 8c3e 6ae3 583f 408a 32bf 278c 593e
00000060: 2d5b e03d 022a 143e 491f 423f 5247 c1be
00000070: 9269 54bf 9c4a 443d b856 c33e 209b 4ebf
00000080: eb9d 993e a074 9c3e 609b 86be 4463 893d
00000090: 9a3b 5d3f c8e7 503e 9339 38bf 6242 54bf
000000a0: 77c0 17bf 46f7 4fbf 1674 4bbf 7e5e 4cbf
000000b0: 220a 16bf 240f f63e 6e07 6ebe 3e04 a03e
000000c0: 1f47 9e3e 35ba c4bd d288 70bf b2ba e0be
000000d0: d2d7 173f 4eb2 e03e 588b 36bd 3317 79bf
000000e0: 9099 953d a5c0 493e da7c 62be 14f8 5fbf
000000f0: 4b1f 65be 67ce a83d 0866 293f 5259 5ebf

tcn.1.conv1.weight f4 [128, 64, 3]
-0.06871989 0.027983366 -0.07166772 -0.06727865 -0.053777203 -0.027275886 0.004247292 0.03080576
-0.045284145 -0.013763802 0.02929246 -0.011785017 0.018172393 0.026606059 0.040170796 0.037730712
-0.0681404 0.023572566 0.032182 0.011883011 0.11437233 -0.012823795 0.007377898 0.035965007
0.06350552 -0.017807445 -0.06269669 -0.0019262647 0.017088937 0.052206993 0.0011891845 -0.034679107
-0.03953504 0.053157218 0.05376441 0.061339393 -0.03289882 0.05155546 -0.024037136 -0.035975505
-0.042195044 -0.066693015 0.037891433 -0.066916205 -0.059930257 -0.05382628 -0.004466031 -0.010798107
0.0050938246 -0.031168982 -0.061713014 0.017432844 0.073032334 -0.057248794 0.036140468 -0.025038129
0.016895266 -0.020082064 -0.07721608 0.049767017 -0.0720586 0.0034998104 0.0106475465 0.026419727
0.056772362 0.024549646 -0.018438898 0.052601345 -0.02940971 -0.01009351 0.028855588 0.031589977
0.07199135 -0.04987561 0.019497344 0.018256485 0.04393303 -0.017298935 0.03050836 -0.033703253
0.05859209 0.05158374 -0.025377084 0.08842488 -0.0729497 0.03170535 -0.018400626 -0.010909716
0.07243515 -0.048087973 0.07059517 0.02677944 0.02497051 0.0075719506 0.023417624 -0.022935603
-0.006363513 0.018924836 0.06957432 -0.04407651 0.003989603 0.014937211 0.07033875 0.04733138
0.051376916 -0.026655031 0.016747601 -0.0030599101 0.0059189694 -0.06886513 0.013448692 0.04441337
-0.026273785 -0.036110245 0.03248798 0.032449596 0.030176211 0.026306465 -0.049601264 -0.03894199
0.010544903 0.07023425 -0.028746719 -0.050531324 -0.06299331 0.013490226 -0.020204125 -0.06322632
0.01659446 -0.05963347 -0.054185852 -0.05827951 -0.037556875 -0.003703394 -0.0055763638 -0.024202852
-0.05221763 0.008582762 0.0010849095 -0.00033997616 -0.023375507 0.06544427 -0.05007195 0.06245756
0.030773396 -0.0012698994 0.034569953 -0.04478494 0.039510343 -0.026385007 0.04018593 -0.032080732
-0.039369646 0.02042336 -0.043101303 0.0025120422 0.010753451 0.024676085 0.002459655 -0.03386035
0.0633617 -0.027571615 0.024791578 0.064622805 0.05512276 0.03691411 -0.05974721 -0.052672144
-0.03466866 0.0061567286 -0.06282413 -0.007379129 -0.02369721 -0.00405898 -0.020406984 -0.0002785083
-0.022232134 -0.030943967 -0.03427771 -0.022553086 0.03107212 0.042442225 0.07712138 -0.051636707
0.03790014 0.0052072406 0.03101619 0.048536487 0.009455006 0.03822347 0.033606708 -0.07043677
-0.038288776 -0.0057052257 -0.0722891 0.02618465 0.036801312 -0.063216284 0.026778284 0.05628249
-0.028667582 0.060223006 0.038197033 -0.002488679 -0.0033815247 -0.03833398 0.05588878 0.027698645
0.0068108677 0.012763652 -0.041726388 -0.065548636 0.06511929 0.068110496 -0.05503079 0.0071448022
0.024808412 0.032151703 -0.035333145 0.017159972 -0.053270992 -0.0002581817 0.010348553 0.03430336
-0.02293963 -0.034692798 0.06925568 -0.03212207 -0.019922819 -0.028166566 0.026358021 0.043726914
0.03711647 -0.05165256 -0.013097825 -0.07634127 -0.06520658 0.003272851 0.011539725 0.06294134
-0.009781688 0.011335511 0.01531101 -0.06166587 -0.061305586 0.038719144 0.019289443 0.0571511
0.015488651 -0.05381652 0.052942667 0.03133008 -0.056392245 -0.057528455 -0.007917636 -0.0029842244
00000000: 04bd 8cbd 5f3d e53c 87c6 92bd 64c9 89bd
00000010: 7c45 5cbd ae71 dfbc de2c 8b3b 5c5c fc3c
00000020: de7b 39bd 9281 61bc bef6 ef3c f215 41bc
00000030: 45de 943c f3f4 d93c 228a 243d 858b 1a3d
00000040: 328d 8bbd 411b c13c 46d1 033d f6b0 423c
00000050: 0a3c ea3d e51a 52bc 4bc2 f13b 0b50 133d
00000060: 2f0f 823d ebe0 91bc 1f67 80bd b87a fcba
00000070: 19fe 8b3c 00d7 553d 69de 9b3a ae0b 0ebd
00000080: 7eef 21bd 62bb 593d 1238 5c3d 043f 7b3d
00000090: eac0 06bd d12b 533d 87e9 c4bc 0d5b 13bd
000000a0: b6d4 2cbd 5996 88bd 0c34 1b3d 5d0b 89bd
000000b0: 6e79 75bd f278 5cbd c957 92bb 8bea 30bc
000000c0: 19ea a63b 1856 ffbc c9c6 7cbd 53cf 8e3c
000000d0: fa91 953d b67d 6abd 0708 143d c31c cdbc
000000e0: f167 8a3c 2483 a4bc 7723 9ebd 80d8 4b3d
000000f0: 7693 93bd 135d 653b 0c73 2e3c 2f6e d83c
00000100: 238a 683d 571c c93c 2c0d 97bc 8274 573d
00000110: a2ec f0bc 405f 25bc 8e62 ec3c 7e64 013d
00000120: 3370 933d 5e4a 4cbd e5b8 9f3c a08e 953c
00000130: 1ff3 333d 7fb6 8dbc abec f93c 6c0c 0abd
00000140: 42fe 6f3d 7949 533d 9ae3 cfbc 1a18 b53d
00000150: a766 95bd 78dd 013d e9bc 96bc aabe 32bc
00000160: e158 943d e5f7 44bd 3394 903d 8e60 db3c
00000170: f48e cc3c 201e f83b 51d6 bf3c 72e3 bbbc
00000180: 0485 d0bb 4208 9b3c fb7c 8e3d 9289 34bd
00000190: 37bb 823b 34bb 743c c30d 903d 8dde 413d
000001a0: 9a70 523d a75b dabc 4432 893c c688 48bb
000001b0: eaf3 c13b 2909 8dbd e757 5c3c cbea 353d
000001c0: 1f3c d7bc 56e8 13bd 1e12 053d dee9 043d
000001d0: 1a34 f73c a880 d73c b22a 4bbd a381 1fbd
000001e0: 87c4 2c3c f9d6 8f3d 3d7e ebbc eff9 4ebd
000001f0: a302 81bd 1c06 5d3c 1f83 a5bc cd7c 81bd
00000200: 1bf1 873c 3a42 74bd fcf1 5dbd 7fb6 6ebd
00000210: 3dd5 19bd a4b4 72bb eeb9 b6bb 0f45 c6bc
00000220: 27e2 55bd b79e 0c3c 8633 8e3a d43e b2b9
00000230: fe7d bfbc a507 863d 3f18 4dbd 80d3 7f3d
00000240: 7d18 fc3c c172 a6ba 3999 0d3d 6a70 37bd
00000250: 99d5 213d 5f25 d8bc 009a 243d 1667 03bd
00000260: 1142 21bd e44e a73c fe8a 30bd 13a1 243b
00000270: 3e2f 303c 8025 ca3c 2a32 213b 26b1 0abd
00000280: c7c3 813d dedd e1bc b517 cb3c f658 843d
00000290: 67c8 613d 4033 173d 7eb9 74bd bfbe 57bd
000002a0: ba00 0ebd 62be c93b f0a9 80bd 9fcc f1bb
000002b0: a720 c2bc 3101 85bb 8c2c a7bc c004 92b9
000002c0: 2a20 b6bc 347e fdbc c966 0cbd 40c1 b8bc
000002d0: f58a fe3c e6d7 2d3d d0f1 9d3d 0381 53bd
000002e0: 2d3d 1b3d 80a1 aa3b aa15 fe3c 32ce 463d
000002f0: 2be9 1a3c 3790 1c3d 30a7 093d 2741 90bd
00000300: b1d4 1cbd e7f2 babb 4f0c 94bd 3181 d63c
00000310: f9bc 163d 8a77 81bd 225e db3c 7888 663d
00000320: 47d8 eabc 66ac 763d 7e74 1c3d 1b19 23bb
00000330: 929c 5dbb 1704 1dbd a2eb 643d 45e8 e23c
00000340: b32d df3b a31e 513c 4ae9 2abd 5d3e 86bd
00000350: 435d 853d 847d 8b3d f767 61bd f21e ea3b
00000360: 033b cb3c 81b1 033d 7db9 10bd 1293 8c3c
00000370: af32 5abd 905c 87b9 fa8c 293c ae81 0c3d
00000380: e4eb bbbc 091a 0ebd ecd5 8d3d 6f92 03bd
00000390: 2e35 a3bc 92bd e6bc c7ec d73c fe1a 333d
000003a0: 7107 183d a291 53bd 4398 56bc d058 9cbd
000003b0: 078b 85bd 547d 563b 1d11 3d3c 64e7 803d
000003c0: 6043 20bc 94b8 393c 08db 7a3c 5a95 7cbd
000003d0: 911b 7bbd f797 1e3d e504 9e3c 4617 6a3d
000003e0: 1cc4 7d3c b66e 5cbd 69da 583d f853 003d
000003f0: 8efb 66bd f5a2 6bbd f9b8 01bc fa92 43bb

tcn.1.conv1.bias f4 [128]
-0.016339412 -0.07729709 0.043516595 -0.051984582 -0.03753502 -0.06140119 -0.047076657 -0.07715013
0.007255494 0.034449458 -0.030766869 -0.059196122 -0.06002974 -0.040164936 0.060758516 0.05647732
-0.03494639 -0.010166805 -0.006145482 0.032086976 -0.07604547 -0.0469981 -0.0686155 -0.010400888
-0.04736429 -0.07596691 0.0026497345 0.06773428 -0.021833671 0.016008364 0.05620432 -0.05298897
-0.06981538 0.013854555 0.045931235 0.0004673639 0.031251833 -0.0025377637 -0.024442585 0.036667824
0.040439215 0.018081753 2.4119809e-05 0.0016068807 0.04470343 -0.07768331 -0.062353365 0.032333188
-0.007544393 0.03184788 -0.018981282 -0.021217223 0.05465289 0.011735997 -0.0082337605 0.02938634
-0.054630414 0.06614661 -0.050917756 -0.013557781 0.021993235 -0.054386273 -0.064153545 -0.0064260946
0.007958778 0.0034394758 0.012743407 0.029644722 0.05031948 -0.02690625 -0.0018360325 -0.0028895615
0.029469777 0.0471347 -0.010925849 0.04842106 0.05821496 0.008013323 -0.050994333 0.064842924
-0.047041714 0.010678689 -0.007505816 0.032665133 0.037473537 -0.01689352 0.05420843 0.005077425
0.003599854 -0.0014189683 -0.0031373745 -0.07389263 0.045591176 0.023725396 -0.00567877 0.014446186
-0.052796185 -0.0053692553 -0.0396889 -0.010495264 0.011615031 0.05703081 -0.06088078 -0.035912618
-0.067392305 -0.060970277 -0.06908193 0.02713116 -0.071444966 -0.006939641 -0.0516175 -0.030151553
-0.0432598 -0.04933633 0.049021114 0.012220234 -0.07425569 -0.025640564 0.04395565 0.022820503
0.051547702 0.0035857812 -0.064210236 -0.06085348 0.026674667 0.02601425 -0.012095773 -0.015390438
00000000: 3bda 85bc f04d 9ebd 753e 323d c9ed 54bd
00000010: 52be 19bd d07f 7bbd 74d3 40bd e300 9ebd
00000020: 7fbf ed3b e01a 0d3d cd0a fcbc a277 72bd
00000030: bfe1 75bd fd83 24bd ecdd 783d c354 673d
00000040: f223 0fbd ac92 26bc 0a60 c9bb a26d 033d
00000050: babd 9bbd 1481 40bd 4986 8cbd 7c68 2abc
00000060: 0f01 42bd 8a94 9bbd 2ba7 2d3b 45b8 8a3d
00000070: 87dc b2bc f923 833c 8036 663d f60a 59bd
00000080: 5efb 8ebd 37fe 623c 6422 3c3d 8508 f539
00000090: ec01 003d 9c50 26bb d13b c8bc 0031 163d
000000a0: 97a3 253d 2f20 943c e554 ca37 f89d d23a
000000b0: f21a 373d 6d18 9fbd 3e66 7fbd ce6f 043d
000000c0: f536 f7bb ec72 023d a27e 9bbc becf adbc
000000d0: b5db 5f3d 5748 403c e5e6 06bc 9fbb f03c
000000e0: 24c4 5fbd e077 873d 238f 50bd 7521 5ebc
000000f0: 282b b43c 24c4 5ebd ef62 83bd fd91 d2bb
00000100: 8965 023c d468 613b b9c9 503c 7dd9 f23c
00000110: cd1b 4e3d 7f6a dcbc 07a7 f0ba cc5e 3dbb
00000120: 9a6a f13c 5110 413d 5502 33bc 2955 463d
00000130: cf72 6e3d 504a 033c 6fdf 50bd 5ecc 843d
00000140: d0ae 40bd abf5 2e3c 59f3 f5bb e0cb 053d
00000150: da7d 193d 4764 8abc a909 5e3d 8760 a63b
00000160: 87eb 6b3b adfc b9ba 699c 4dbb 0555 97bd
00000170: d0bd 3a3d c35b c23c fa14 babb b2af 6c3c
00000180: d040 58bd 94f0 afbb d490 22bd 54f4 2bbc
00000190: f94c 3e3c 2399 693d 205e 79bd 1c19 13bd
000001a0: fa04 8abd f8bb 79bd d47a 8dbd 2b42 de3c
000001b0: bd51 92bd ee65 e3bb df6c 53bd 6400 f7bc
000001c0: 3031 31bd e414 4abd 5dca 483d 6037 483c
000001d0: 5e13 98bd 290c d2bc d70a 343d 10f2 ba3c
000001e0: af23 533d 6dff 6a3b a880 83bd 8041 79bd
000001f0: d584 da3c d61b d53c 592d 46bc 2d28 7cbc

tcn.1.conv2.weight f4 [128, 128, 3]
-0.03351533 0.036350545 -0.020693686 0.00973296 0.041322455 0.04051555 -0.041998338 -0.05488457
-0.056054097 0.027041668 -0.0032909287 -0.037943896 -0.012493983 -0.040361412 0.032113485 -0.017434275
0.03173498 -0.03125371 -0.030103894 0.0073340815 -0.02686636 0.021367565 0.03879862 0.020301862
-0.021610003 0.0343967 -0.005708477 -0.02811161 0.02882611 0.017435813 0.019689895 -0.044879146
-0.00026460132 -0.04070201 -0.021949215 0.020829326 0.0119607765 -0.049208988 0.011619001 -0.028991966
-0.0031664022 0.005417439 -0.04997458 -0.03891929 -0.045811117 -0.0435209 -0.05216399 0.03525974
0.027386662 0.0055064172 -0.033817455 0.048605874 0.043493766 0.0445977 0.021031464 -0.038550023
-0.03587725 -0.025483513 0.026043171 -0.0028971403 0.023174364 -0.02402573 0.005112911 0.049552366
0.04686636 0.050199497 0.047947813 0.03291728 0.031914286 0.007457425 -0.0073884954 -0.0056907553
-0.011772601 -0.017844139 0.013555996 -0.00050611043 0.018894648 -0.045100678 0.008708176 0.014358333
-0.010301404 0.024974262 -0.050343473 0.027002636 -0.023417447 -0.040866982 0.021896575 0.017576609
0.008928316 -0.05203989 0.011500005 0.005780068 -0.008382546 0.0064016376 0.03126086 -0.009336738
-0.04341659 -0.03880099 0.039202668 0.041681234 -0.033025898 -0.048335876 0.032785892 0.038805038
0.017229514 0.020080315 -0.0025651983 0.036005754 -0.039868686 -0.01668167 0.0155747915 0.024140421
-0.0110808285 -0.028515419 -0.032722242 -0.02507956 -0.044456888 -0.046688233 -0.022259882 0.003403269
0.04148062 0.03048999 0.011897396 -0.037972767 0.0045046043 0.02853968 -0.05663189 -0.021601269
-0.022077683 0.023463026 -0.03058191 -0.03499077 0.043116566 -0.027913747 -0.05373698 0.03474117
-0.014919074 0.0042009098 0.017111052 -0.011496299 -0.028088555 0.0064269635 0.0024407085 0.023200594
0.04615646 -0.01972847 -0.0043586898 0.00040133667 -0.0336283 -0.021255359 0.022351073 -0.03908977
-0.04375538 -0.03599972 -0.043771766 -0.047002167 0.00048726628 -0.057505887 0.017518975 -0.003223957
0.010522767 0.027132127 -0.03657166 -0.04242772 0.02084494 -0.045594964 -0.0024531542 0.023860838
-0.021794094 0.026855346 0.033329528 0.024592998 -0.022024337 -0.035719633 0.031226138 0.035623085
-0.023667479 -0.035002984 0.011439778 0.0043635187 -0.0031916532 -0.03993915 -0.01216888 -0.042752843
-0.027809603 -0.021197919 -0.030012805 0.0029507459 0.0033736473 -0.049475458 0.031364832 -0.049444642
0.02534718 -0.024728375 -0.03597798 0.00978827 0.030448034 0.008129705 -0.047474727 -0.008339613
0.005915335 0.023306575 -0.04361518 -0.03528305 -0.03555557 0.013531831 -0.044393472 -0.009769758
0.0003214333 -0.04717477 0.033368856 0.038731314 -0.013591693 -0.044558156 -0.04577613 0.016874464
-0.05116527 0.03608771 0.014291872 0.0027279262 -0.023286778 -0.04240528 0.0034027875 -0.028239809
0.004727908 0.027924469 -0.019150306 0.017562877 0.039867856 0.024521414 -0.011677296 -0.016933804
0.03802149 -0.052742742 0.02958678 0.007497016 0.006887225 -0.035501335 -0.038954597 0.03286014
0.038974 -0.045749642 0.008317797 0.011147325 0.0042989687 0.013064784 -0.04591671 -0.0458837
0.029088113 0.026586551 -0.03665315 -0.047975693 0.03207494 0.013984153 -0.04903211 0.041747257
00000000: 5f47 09bd 4fe4 143d ce85 a9bc fe76 1f3c
00000010: bc41 293d a2f3 253d 7306 2cbd a5ce 60bd
00000020: fb98 65bd 7d86 dd3c 9fac 57bb 0f6b 1bbd
00000030: 90b3 4cbc 0252 25bd 6e89 033d 53d2 8ebc
00000040: 8afc 013d e403 00bd 719c f6bc bc52 f03b
00000050: d716 dcbc 080b af3c 4deb 1e3d 1750 a63c
00000060: 7607 b1bc 8ee3 0c3d 2d0e bbbb 524a e6bc
00000070: bc24 ec3c 8dd5 8e3c b44c a13c 32d3 37bd
00000080: 30ba 8ab9 27b7 26bd d7ce b3bc 43a2 aa3c
00000090: 22f7 433c 5d8f 49bd 9f5d 3e3c 8f80 edbc
000000a0: 6a83 4fbb c684 b13b 25b2 4cbd d569 1fbd
000000b0: 70a4 3bbd f942 32bd e8a9 55bd 846c 103d
000000c0: fe59 e03c 2d6f b43b 2c84 0abd f416 473d
000000d0: 8526 323d 14ac 363d 2d4a ac3c a1e6 1dbd
000000e0: 06f4 12bd cdc2 d0bc 7d58 d53c f3dd 3dbb
000000f0: 2ad8 bd3c 9cd1 c4bc 358a a73b 6cf7 4a3d
00000100: f1f6 3f3d fd9d 4d3d ed64 443d 45d4 063d
00000110: 8eb8 023d 6a5d f43b 311b f2bb 8479 babb
00000120: dee1 40bc df2d 92bc f819 5e3c 7fac 04ba
00000130: f3c8 9a3c 7dbb 38bd bdac 0e3c 373f 6b3c
00000140: 38c7 28bc d396 cc3c f534 4ebd a234 dd3c
00000150: f2d5 bfbc 2364 27bd 7260 b33c d2fc 8f3c
00000160: 1248 123c c827 55bd 846a 3c3c ba66 bd3b
00000170: f256 09bc d4c4 d13b 630b 003d 1ef9 18bc
00000180: 98d5 31bd c9ed 1ebd fa92 203d f1b9 2a3d
00000190: 2a46 07bd d7fb 45bd 804a 063d 08f2 1e3d
000001a0: e924 8d3c 797f a43c e31c 28bb c57a 133d
000001b0: 594d 23bd ffa7 88bc 692d 7f3c 22c2 c53c
000001c0: 5d8c 35bc 2b99 e9bc c207 06bd a673 cdbc
000001d0: 6d18 36bd 293c 3fbd 5b5a b6bc 6109 5f3b
000001e0: 95e7 293d 25c6 f93c 4ced 423c 5589 1bbd
000001f0: 5c9b 933b 0ccc e93c d7f6 67bd 25f5 b0bc
00000200: 42dc b4bc 8835 c03c ea86 fabc 7b52 0fbd
00000210: ff9a 303d 5fab e4bc 4f1b 5cbd c24c 0e3d
00000220: 226f 74bc c9a7 893b 7a2c 8c3c f95a 3cbc
00000230: f819 e6bc 4799 d23b 4bf4 1f3b 2c0f be3c
00000240: 8e0e 3d3d 9a9d a1bc 57d3 8ebb 7f6a d239
00000250: d4bd 09bd b81f aebc 9919 b73c 981c 20bd
00000260: d738 33bd 7174 13bd 064a 33bd 5885 40bd
00000270: c677 ff39 4b8b 6bbd f483 8f3c 0649 53bb
00000280: af67 2c3c 3244 de3c 2acc 15bd b0c8 2dbd
00000290: 02c3 aa3c c9c1 3abd 19c5 20bb ce77 c33c
000002a0: 8789 b2bc beff db3c 8b84 083d 4177 c93c
000002b0: 626c b4bc c04e 12bd f5cd ff3c 83e9 113d
000002c0: 4de2 c1bc 4a5f 0fbd e86d 3b3c d9fb 8e3b
000002d0: 0e2b 51bb 3c97 23bd fb5f 47bc 9b1d 2fbd
000002e0: f7d0 e3bc 42a7 adbc 6add f5bc 4d61 413b
000002f0: 6918 5d3b c7a6 4abd 6978 003d 7786 4abd
00000300: e4a4 cf3c 2993 cabc a55d 13bd fb5e 203c
00000310: 286e f93c 7432 053c dc74 42bd dfa2 08bc
00000320: 6dd5 c13b 6eed be3c d5a5 32bd f684 10bd
00000330: b8a2 11bd 9db4 5d3c eed5 35bd 5611 20bc
00000340: 0c86 a839 553a 41bd c8ad 083d baa4 1e3d
00000350: b1af 5ebc 9d82 36bd c07f 3bbd 513c 8a3c
00000360: ad92 51bd b5d0 133d 7528 6a3c 02c7 323b
00000370: eac3 bebc 29b1 2dbd 4d01 5f3b 2c57 e7bc
00000380: 91ec 9a3b dbc1 e43c 1ae1 9cbc 06e0 8f3c
00000390: 7a4c 233d 22e1 c83c 2152 3fbc c3b8 8abc
000003a0: 6cbc 1b3d c608 58bd fa5f f23c 87a9 f53b
000003b0: 3bae e13b d969 11bd db8e 1fbd 5b98 063d
000003c0: 33a3 1f3d fa63 3bbd 5f47 083c 45a3 363c
000003d0: 5dde 8c3b ad0d 563c 2913 3cbd 8cf0 3bbd
000003e0: 324a ee3c 0acc d93c 9d21 16bd 2982 44bd
000003f0: 0361 033d ca1d 653c e5d5 48bd 2cff 2a3d

tcn.1.conv2.bias f4 [128]
0.004704252 -0.037939005 -0.042676874 -0.04463098 0.04279459 0.0032790892 0.006669987 -0.04974471
-0.009589327 0.012553808 0.028910803 -0.02645248 -0.046172295 0.0311438 -0.052459147 -0.05350161
0.038188543 0.047428288 0.031366594 -0.027889669 0.046634257 0.024895804 -0.037958365 0.0030551776
0.015038251 -0.0065347054 0.0030912822 -0.016244257 -0.052615765 0.006547626 0.032907717 0.040094346
-0.0063760937 -0.0109072225 -0.030444862 -0.010234814 0.041177362 0.020371089 0.0016942804 0.0011567529
-0.008099087 -0.02474672 0.040302213 -0.023077544 -0.015924918 0.042763855 -0.03396362 0.029245203
-0.034233183 0.03721673 -0.011100722 0.0183154 0.01998951 0.016187666 0.004738978 0.04172229
-0.020130135 0.05211104 0.00878106 0.030138457 0.043341544 -0.009297919 -0.047289327 0.030904252
-0.01773913 -0.018100757 0.0029446275 0.0058221095 -0.00569022 0.020542178 -0.04629073 -0.05445665
0.020196319 0.0061429953 0.01431077 0.023750309 -0.032237835 -0.013537021 -0.018535411 -0.00078763074
-0.05377671 0.0065610716 -0.008550611 -0.050751124 -0.010235353 -0.027326759 0.01569362 -0.049758397
0.035763077 -0.043341707 0.04172476 0.0048645805 0.013782851 -0.019801635 0.0036028216 0.04609019
0.04474135 0.0347475 0.021653159 -0.010095957 -0.007499332 -0.003204823 0.016758569 -0.011583299
-0.008276608 -0.042344645 -0.004957528 0.0009524289 0.039137576 0.03378478 -0.004992356 -0.031097565
-0.012346765 0.005062177 0.04564194 0.04158808 0.02400027 -0.004201298 -0.046822015 0.027711023
-0.009410068 0.0009333736 0.043453287 -0.021318326 0.044321716 0.018443722 0.04176659 -0.0028720133
00000000: 2026 9a3b ee65 1bbd f2cd 2ebd f9ce 36bd
00000010: 6149 2f3d fde5 563b e88f da3b 1cc1 4bbd
00000020: 8d1c 1dbc 7dae 4d3c 59d6 ec3c dfb2 d8bc
00000030: 291f 3dbd 4821 ff3c 67df 56bd 8124 5bbd
00000040: 976b 1c3d 2a44 423d 427a 003d e078 e4bc
00000050: 9003 3f3d 49f2 cb3c 3b7a 1bbd 6039 483b
00000060: ff62 763c 1521 d6bb 1c97 4a3b ad12 85bc
00000070: a183 57bd 788d d63b 3eca 063d f839 243d
00000080: 8dee d0bb 35b4 32bc 8167 f9bc ecaf 27bc
00000090: 98a9 283d 45e1 a63c 9e12 de3a 309e 973a
000000a0: 08b2 04bc a2b9 cabc ef13 253d 1e0d bdbc
000000b0: f974 82bc 2729 2f3d 701d 0bbd a393 ef3c
000000c0: 1838 0cbd 9270 183d cddf 35bc 2e0a 963c
000000d0: 0ac1 a33c ff9b 843c 6e49 9b3b fee4 2a3d
000000e0: f4e7 a4bc 6372 553d 6fde 0f3c ede4 f63c
000000f0: e786 313d 4d56 18bc 74b2 41bd ea2a fd3c
00000100: a751 91bc 0a48 94bc a7fa 403b 65c7 be3b
00000110: 0675 babb 1248 a83c 599b 3dbd f00d 5fbd
00000120: c072 a53c 2e4b c93b b877 6a3c 0290 c23c
00000130: d20b 04bd 62ca 5dbc 93d7 97bc 0179 4eba
00000140: f844 5cbd 42fe d63b dd17 0cbc 69e0 4fbd
00000150: 2fb2 27bc 5edc dfbc e88f 803c 76cf 4bbd
00000160: 4e7c 123d 1387 31bd 95e7 2a3d 0f67 9f3b
00000170: 78d1 613c 0a37 a2bc 511d 6c3b 11c9 3c3d
00000180: b542 373d 6553 0e3d f761 b13c 8369 25bc
00000190: f5bc f5bb 0208 52bb 4449 893c e1c7 3dbc
000001a0: 9c9a 07bc 9471 2dbd c272 a2bb 6cac 793a
000001b0: b94e 203d e961 0a3d eb96 a3bb 52c0 febc
000001c0: 164a 4abc 9ee0 a53b 0bf3 3a3d 4358 2a3d
000001d0: 379c c43c 0bab 89bb 71c8 3fbd 3a02 e33c
000001e0: b02c 1abc a4ad 743a 13fc 313d c5a3 aebc
000001f0: b08a 353d 4a17 973c 7213 2b3d 6338 3cbb

tcn.1.downsample.weight f4 [128, 64, 1]
-0.08832378 0.06673126 -0.048663232 -0.052715287 -0.09154105 -0.06554766 -0.069097035 -0.03534217
-0.024045594 0.031624332 -0.047340456 -0.05342208 0.046105936 -0.077709466 0.08215213 0.09948459
-0.0729826 -0.027239352 0.03584717 0.11939586 0.004104639 -0.09217037 -0.021360546 0.057581544
-0.091716364 0.10501908 0.10828105 0.018078597 0.115669355 -0.032158975 -0.024613706 -0.03367424
0.045821693 -0.030721825 0.05987312 0.026714396 -0.046978842 -0.09260437 -0.10314576 -0.00087429583
-0.04931969 0.012182221 0.07866864 9.304285e-05 0.06905601 0.10036108 -0.021191388 0.066474885
0.029463826 -0.006469975 0.005908489 0.011734603 -0.07123422 0.058315113 0.048940618 -0.11745682
-0.06972239 -0.069038786 0.1267105 -0.019563964 -0.108060606 0.018999921 -0.054718606 -0.02623047
0.08232597 -0.008924618 0.01807452 0.021748926 -0.021518104 -0.027911492 -0.08606971 0.014136524
-0.04585687 -0.089412086 0.05477992 0.011149858 0.054484673 0.0018183589 0.067019075 -0.031855065
0.13714337 -0.035384998 0.07159554 -0.009773061 -0.055695638 0.024700642 -0.064831555 -0.034969375
0.07709576 -0.023225881 0.014604926 0.042772733 0.089336 0.04340881 0.0643089 0.011229202
0.0656351 -0.10288855 0.0902314 -0.013687107 0.05120147 -0.10507962 0.052756883 0.028876247
0.08638601 -0.0016017195 0.10722579 0.053176135 0.054976016 -0.03344735 -0.120892696 0.021490036
0.08822609 -0.013311202 0.09405859 0.042136185 -0.007679387 -0.07216424 -0.09097431 0.0024642944
-0.11213687 0.04639372 0.06812606 -0.09269907 0.062231302 -0.11157383 0.09298898 -0.0992862
-0.07220355 0.044522747 -0.08554423 0.009592502 0.059930984 0.113230415 0.1124641 0.074535124
0.026833495 -0.12550049 -0.0681092 -0.017164148 -0.044726044 0.09912144 -0.04656416 0.100061096
0.06800506 0.053335384 -0.05624864 -0.049455173 -0.065986134 0.050881986 0.066327795 0.05458944
0.12426244 -0.081424326 0.006461831 0.0030429403 0.030742154 0.015429403 0.07288181 -0.029570028
-0.082208484 0.12237042 0.11895062 -0.0117484955 -0.040602744 -0.08726938 -0.039399642 -0.042782884
0.042004183 -0.035055462 -0.056173444 0.024144143 -0.11611507 0.107904606 -0.055079363 0.030645797
0.09399537 -0.08850628 0.10278945 -0.06621022 0.029958896 0.07468489 0.097219944 -0.043118507
-0.03413984 0.06179328 0.013673801 -0.08965279 0.10957456 -0.12225208 0.067461565 -0.007713765
0.06344341 0.092155784 -0.07966317 0.072864175 0.059782814 0.027312946 -0.030987028 -0.06323258
0.021787014 -0.07657481 0.07216114 0.024185047 -0.0027960567 -0.10808526 -0.06450421 -0.06442217
-0.12186827 -0.0059034256 -0.00353254 0.09590455 0.04415985 0.021967657 0.06770845 0.094632804
-0.07734089 -0.0834831 0.08755222 -0.0290642 0.07256382 0.069460206 0.049257528 0.0940098
0.01858422 0.0065848404 -0.06521817 0.058377914 -0.08077445 -0.09318518 -0.12355363 0.0037501208
0.04813074 -0.077416606 -0.013059288 -0.0029667318 0.07486043 -0.1234832 -0.049970552 0.029124664
0.03615574 0.0034878836 -0.11885184 -0.0075796596 0.09335411 0.030003889 0.053250417 0.102281064
0.05733021 -0.034294184 0.082136214 -0.08933574 -0.054654025 -0.06472381 -0.06062068 0.10498449
00000000: 19e3 b4bd 66aa 883d 1953 47bd fceb 57bd
00000010: e079 bbbd da3d 86bd bf82 8dbd f4c2 10bd
00000020: 44fb c4bc 8488 013d 11e8 41bd 1cd1 5abd
00000030: 94d9 3c3d 2426 9fbd 603f a83d 94be cb3d
00000040: e777 95bd 1025 dfbc 7bd4 123d d185 f43d
00000050: 3580 863b d2c3 bcbd 50fc aebc a0da 6b3d
00000060: cad5 bbbd 3e14 d73d 75c2 dd3d 9119 943c
00000070: 0ee4 ec3d 21b9 03bd afa2 c9bc 00ee 09bd
00000080: 87af 3b3d 56ac fbbc 843d 753d 26d8 da3c
00000090: e36c 40bd 5ca7 bdbd 163e d3bd 0031 65ba
000000a0: 7103 4abd f097 473c 061d a13d 0020 c338
000000b0: 3d6d 8d3d 1c8a cd3d 9099 adbc fc23 883d
000000c0: 1f5e f13c 1602 d4bb 009c c13b 7e42 403c
000000d0: 3fe3 91bd d4db 6e3d f575 483d 348d f0bd
000000e0: 9dca 8ebd 3564 8dbd 66c0 013e 9b44 a0bc
000000f0: e14e ddbd b9a5 9b3c 9e20 60bd 48e1 d6bc
00000100: 859a a83d 9038 12bc 0411 943c ce2a b23c
00000110: bc46 b0bc a4a6 e4bc 5145 b0bd e19c 673c
00000120: 6ad4 3bbd af1d b7bd e960 603d e5ad 363c
00000130: 522b 5f3d 0056 ee3a 4c41 893d 757a 02bd
00000140: 506f 0c3e dcef 10bd afa0 923d 301f 20bc
00000150: 1c21 64bd 0059 ca3c 68c6 84bd 0c3c 0fbd
00000160: 62e4 9d3d 3444 bebc 8049 6f3c 7632 2f3d
00000170: cbf5 b63d 70cd 313d 62b4 833d b0fa 373c
00000180: b26b 863d 3bb7 d2bd 3ecb b83d e33f 60bc
00000190: a2b8 513d fc33 d7bd 9a17 583d e18d ec3c
000001a0: 26eb b03d caf0 d1ba 3299 db3d 38cf 593d
000001b0: 882e 613d 1700 09bd 9796 f7bd df0b b03c
000001c0: e1af b43d 3a17 5abc caa1 c03d fe96 2c3d
000001d0: 5ea3 fbbb d8ca 93bd bd50 babd 0080 213b
000001e0: 04a8 e5bd 5707 3e3d ad85 8b3d 03d9 bdbd
000001f0: 40e6 7e3d d280 e4bd 0271 be3d 9056 cbbd
00000200: 74df 93bd 7c5d 363d d031 afbd df29 1d3c
00000210: 317a 753d 59e5 e73d 9453 e63d dfa5 983d
00000220: ebd1 db3c 3383 00be d67c 8bbd d49b 8cbc
00000230: a832 37bd 2e00 cb3d 10ba 3ebd d5ec cc3d
00000240: 3d46 8b3d 3476 5a3d f964 66bd 8291 4abd
00000250: bd23 87bd a169 503d ded6 873d 2d99 5f3d
00000260: 4e7d fe3d ccc1 a6bd c4bd d33b 116c 473b
00000270: f8d6 fb3c 9bcb 7c3c 0f43 953d d83c f2bc
00000280: ec5c a8bd 589d fa3d 629c f33d c37c 40bc
00000290: 104f 26bd 4aba b2bd 8561 21bd 1b3d 2fbd
000002a0: 940c 2c3d 5196 0fbd 2016 66bd f0c9 c53c
000002b0: bdcd edbd 17fd dc3d e69a 61bd e50c fb3c
000002c0: a580 c03d c842 b5bd 4683 d23d 3999 87bd
000002d0: 5c6c f53c 64f4 983d 401b c73d 089d 30bd
000002e0: 38d6 0bbd f31a 7d3d 1408 603c e29b b7bd
000002f0: a068 e03d 4c5f fabd 4a29 8a3d c0c3 fcbb
00000300: 9eee 813d 2cbc bc3d 7226 a3bd d039 953d
00000310: d3de 743d 66bf df3c 82d8 fdbc 1580 81bd
00000320: ae7a b23c 41d3 9cbd 38c9 933d b81f c63c
00000330: 0c3e 37bb ce5b ddbd c91a 84bd c5ef 83bd
00000340: 1296 f9bd 8671 c1bb 3082 67bb 9b69 c43d
00000350: f5e0 343d 84f5 b33c baaa 8a3d d8ce c13d
00000360: e764 9ebd 30f9 aabd 944e b33d 0c18 eebc
00000370: 579c 943d 2741 8e3d 43c2 493d 3688 c03d
00000380: ef3d 983c a5c5 d73b 1b91 85bd ae1d 6f3d
00000390: 136d a5bd dfd7 bebd b009 fdbd 96c4 753b
000003a0: bd24 453d 998c 9ebd a0f6 55bc 806d 42bb
000003b0: 6d50 993d c3e4 fcbd ecad 4cbd d996 ee3c
000003c0: 0b18 143d fa94 643b 9868 f3bd cb5e f8bb
000003d0: 7130 bf3d b7ca f53c 1c1d 5a3d bc78 d13d
000003e0: 15d3 6a3d 0f78 0cbd 0837 a83d a8f5 b6bd
000003f0: e6dc 5fbd eb8d 84bd 644d 78bd 1c02 d73d

tcn.1.downsample.bias f4 [128]
-0.07781083 -0.072981775 0.028358325 -0.115560256 0.10250542 -0.10970161 -0.11756248 -0.12081207
0.035665978 0.068744466 0.09440811 -0.0045082485 0.093678325 0.044634834 -0.12276056 0.10515116
-0.050820526 0.06721129 0.12528688 -0.022179503 -0.07897409 -0.021186078 0.1255778 -0.11368824
0.08791067 0.0945321 -0.02486045 -0.11964932 0.081807695 0.1184893 -0.08916921 -0.0095593305
0.017992636 0.038278725 -0.057493836 -0.029863924 0.026568266 0.060049344 -0.057630345 -0.0948251
0.0022357795 -0.052800335 0.009586617 -0.09117878 -0.038496565 0.014066342 -0.10335928 -0.09171627
0.011237826 0.08147162 0.07606234 -0.04913399 -0.006204433 -0.065512896 0.009878442 -0.11983112
-0.00420981 -0.057983253 0.017979672 -0.069421664 -0.10817851 0.09412299 0.056028444 0.10372565
-0.03752391 -0.083884515 -0.12346608 -0.10287445 0.12631729 0.01801156 -0.12380048 -0.0524247
0.102859885 0.105899945 0.038875606 -0.021187495 -0.022084687 0.044140518 0.015671803 0.09031879
0.08293263 0.016472137 0.078195624 -0.0895467 0.06717323 0.11343678 -0.08810778 -0.12023246
0.07855671 -0.040881835 0.0258786 0.10994047 -0.10931991 -0.078473516 -0.012670699 -0.010200546
-0.037089717 -0.029815685 0.04107578 0.039813012 0.014902304 -0.002238376 -0.06519005 0.04959124
0.02965499 0.0887625 -0.052805487 0.11478352 -0.064765066 0.017806893 -0.01064403 0.10052085
0.09840978 -0.08837648 0.11719155 0.086101405 0.03145758 -0.07102542 0.08142299 -0.10694088
0.0062271794 -0.043841723 0.09976296 -0.094102055 0.078660846 -0.026566563 -0.052421026 0.121851005
00000000: 495b 9fbd 7877 95bd b84f e83c dbaa ecbd
00000010: 5dee d13d 3dab e0bd 99c4 f0bd 526c f7bd
00000020: 7d16 123d e6c9 8c3d 0a59 c13d eeb9 93bb
00000030: 6cda bf3d 04d3 363d e369 fbbd 7e59 d73d
00000040: 2f29 50bd 13a6 893d 344b 003e cab1 b5bc
00000050: 2bbd a1bd 6d8e adbc 7897 003e 61d5 e8bd
00000060: 820a b43d 0c9a c13d 24a8 cbbc b40a f5bd
00000070: cb8a a73d 85aa f23d 599e b6bd bd9e 1cbc
00000080: 4b65 933c 27ca 1c3d a87e 6bbd 30a5 f4bc
00000090: b1a5 d93c 4df6 753d cc0d 6cbd a933 c2bd
000000a0: 2886 123b 2a45 58bd 3011 1d3c f1bb babd
000000b0: 93ae 1dbd 8476 663c 08ae d3bd bdd5 bbbd
000000c0: dc1e 383c 98da a63d 92c6 9b3d b940 49bd
000000d0: 8e4e cbbb a02b 86bd 30d9 213c 056a f5bd
000000e0: 72f2 89bb d97f 6dbd 1b4a 933c f22c 8ebd
000000f0: b28c ddbd 8ec3 c03d 157e 653d 1d6e d43d
00000100: acb2 19bd a5cb abbd c9db fcbd d7af d2bd
00000110: 5259 013e fb8c 933c 1b8b fdbd 48bb 56bd
00000120: 34a8 d23d 12e2 d83d 073c 1f3d 6691 adbc
00000130: f2ea b4bc b0cc 343d 2762 803c 0ff9 b83d
00000140: 95d8 a93d 93f0 863c 0725 a03d 4364 b7bd
00000150: 1e92 893d 8b51 e83d da71 b4bd 703c f6bd
00000160: 57e2 a03d b673 27bd 5cff d33c 7828 e13d
00000170: 1ee3 dfbd b9b6 a0bd c398 4fbc 3120 27bc
00000180: 63eb 17bd 0640 f4bc 143f 283d f812 233d
00000190: cb28 743c b8b1 12bb 5c82 85bd 2f20 4b3d
000001a0: 06ef f23c 1dc9 b53d 914a 58bd 9f13 eb3d
000001b0: 8ca3 84bd c3df 913c 4c64 2ebc e0dd cd3d
000001c0: 118b c93d bafe b4bd 2002 f03d ef55 b03d
000001d0: aad9 003d c775 91bd 19c1 a63d d203 dbbd
000001e0: 5e0d cc3b 6193 33bd 8650 cc3d 94b8 c0bd
000001f0: f018 a13d 1fa2 d9bc 6eb7 56bd 058d f93d
